experiments/experiment0_normalization/trained_model_experiment0_pickle_normalization_v2.pth (torch, 733912 bytes, 7 tensors)

Stock_price_layer.weight_ih_l0 f4 [800, 1]
00000000: 6bb2 993c 9e22 3dbd d62b 6e3d e860 22bc
00000010: dea5 403d a70f a73c 0f22 49bc 465f 9c3c
00000020: 3458 76bc 5634 0bbd 0f18 e13c 60d7 f93c
00000030: 9bde e93c 5b15 8a3d ba02 41bd 224d 423d
00000040: 0fc7 883c ce05 bd3c 6bb3 a8bc 5c96 d33b
00000050: 049d 1dbd 807e 613d e0f6 65bd 6a23 203d
00000060: 6c66 a0bc 61e2 46bc d202 fbbc 19a4 82bd
00000070: 8a50 80bc fda7 013d 588e 753c fb19 80bd
00000080: 6572 03bd 4326 a5bc 5c04 18bb 3b52 193d
00000090: 90a0 c13c c557 3d3d 160c 523c 75db 8d3d
000000a0: 1b38 4cbd 5eb3 44bd d081 493c 4ba9 9c3d
000000b0: 8911 62bd b0a2 11bc 2c92 513d 1a16 0e3c
000000c0: 9e19 313d 722f 0a3d bcb3 8d3c a86d 42bd
000000d0: cc3e ffbc 78e7 5abc 395a 82bd 7d5a d4bc
000000e0: 4b7a 8cbd 0309 b43c 0a33 a03c ff6e 08bd
000000f0: bcce 78bc a726 493d 8fe3 36bd 6744 8cbb
00000100: 750a 173d 7e49 aabc 6086 803b 33ce 1d3c
00000110: fa8d a0bc db55 85bd 69bc 55bd 3942 923c
00000120: e10e fd3c 8567 6bbd 4028 823d 4c17 223d
00000130: cda6 033d 38af 6c3d 22f9 d9bc dc8e 3f3c
00000140: 4dbe 553c 221f 843c 36cd a33b 52e0 e1bc
00000150: 66d4 81bd 07c6 81ba e606 633d e318 233b
00000160: db1b 58bd 8925 673d 8fe5 66bd 0dfb 7bbd
00000170: 4d13 b33b c328 09bd 7d78 54bd e372 203d
00000180: 6ec1 7e3d fdf6 64bd 84cf aa3d 0d06 83bd
00000190: 9fa2 0d3d 13ad 5b3d 9dbc 7cbd 0f2d bf3b
000001a0: b2a6 653d 245c 27bd e5d7 63bd 9bd7 943d
000001b0: dc2f 813c 39f3 bebc 4261 abbb 0209 fdbc
000001c0: 91f0 54bc 8b01 5ebd 15ef 43bd 6f79 20bd
000001d0: bc40 1abd 7766 c7bc e881 453d aa17 f73c
000001e0: 5dda a9bb f239 133d 9e99 82bd 2f33 f13b
000001f0: e45a 88bc 76c2 cf3c 9b2b 80bc 1411 88bc
00000200: ecf5 10bd 74bc 8f3c 1ad2 62bd e4b0 c23c
00000210: cb5a 7dbc a84c c1bc f44e 59bd cde5 94bc
00000220: 328e 89bd ba9a 483c 6136 0b3d 2a68 c73c
00000230: 297b 823d e953 c4bc 10b8 43bd 22f4 f53b
00000240: 2a64 593d 9e91 8fbc 301b 5d3d 6f69 bebc
00000250: 97f0 27bb 28a8 513c 8ef4 e13c 9b61 c8bc
00000260: 08ec 923d d266 7a3c 3c04 82bc ac91 833d
00000270: f74d 873d 633b 71bb 2032 9f3c 14bb 163c
00000280: b466 6bbd 92bf e93b 1ad2 37bd e7e6 e8bb
00000290: e0a7 9ebc 9e11 49bd 2f20 e3bc 2a9b 863d
000002a0: 589e 903d 2f1f 88ba 7138 b1b7 3078 f13b
000002b0: 6d16 b2bc ff5c 783d bf01 ef3c ed93 80bd
000002c0: a6b2 783b e001 673d 24f9 323c 27f9 2abd
000002d0: d767 dc3c 87aa 57bd be0e 15bd eb79 843d
000002e0: 53fd 063d 4753 c6ba 400c c23c b6ae 863d
000002f0: 8c26 223d ea0d aebb abca d7bc ea53 8d3d
00000300: 281b 133b 93d4 e2bc 9b0e 78bd 9ab6 26bc
00000310: d0bd 78bd f43d 533d 3473 1fbc fe51 5f3d
00000320: 5b3e 343d 8835 083b 5cc9 18bc 4e30 023d
00000330: 2089 1c3d 6561 673d f5ea ad3a a6de 1cbd
00000340: 8347 9c3c 628e c6bc 4fe1 3cbc f395 883d
00000350: 3e14 dab9 3dde 35bd bf17 d0bc 9279 263c
00000360: 784d e3bc bc72 8bbd fd90 27bd dcab cabb
00000370: 5020 aabb fc1a 313d 2f2b 603c 504f 81bd
00000380: 7991 f3bb e382 6c3d d6b5 09bb 089f 1abd
00000390: 4043 d9bc 3515 5cba 62c8 873d 98cb 583d
000003a0: 237a 5fbd 8603 a0bb 597d 843d 3697 0ebd
000003b0: ab20 693d c344 313d 1e48 83bd 2aeb 7fbd
000003c0: b459 8f3d a4b5 9e3c 2915 68bd 34ca 90bd
000003d0: d54f 3bbd 2051 83bd 921e 553d 75b9 f43c
000003e0: 6fa3 1ebd 3227 853d d151 6f3d 4e49 e73c
000003f0: 4ca1 21bd 571d 6b3c 87a0 6bbc 2fa5 71bd
0.018761834 -0.04617559 0.058147274 -0.0099108 0.047033183 0.020393206 -0.012276187 0.019088399
-0.015035678 -0.03398546 0.027477292 0.030498207 0.02854853 0.067423545 -0.04712174 0.04743684
0.016696481 0.023074057 -0.020593366 0.006457133 -0.03847982 0.05505228 -0.05614364 0.039096273
-0.019580089 -0.012138934 -0.030640993 -0.063789554 -0.015663404 0.031654347 0.014987551 -0.062549554
-0.032091517 -0.020159846 -0.0023195958 0.037431937 0.023636132 0.04622628 0.012820264 0.06926624
-0.049858194 -0.04802262 0.012299016 0.076494776 -0.055192504 -0.008888885 0.05116479 0.008672262
0.04323732 0.033736654 0.017297618 -0.047467858 -0.031157874 -0.0133608505 -0.06364865 -0.025922054
-0.06859263 0.021976953 0.019555587 -0.03330898 -0.015186008 0.049109127 -0.04465061 -0.004280615
0.036875207 -0.020786997 0.0039222687 0.009631681 -0.01959895 -0.06510516 -0.052181635 0.017853843
0.030890884 -0.05747177 0.06355333 0.039573 0.032141495 0.05778429 -0.026608054 0.011691775
0.0130458595 0.016128127 0.0049988283 -0.027572785 -0.0633934 -0.0009900936 0.0554265 0.002488666
-0.05276094 0.05643228 -0.056371268 -0.061518718 0.0054649473 -0.03348614 -0.05187272 0.039172065
0.062196188 -0.05589961 0.08340362 -0.063976385 0.034578916 0.053631853 -0.061703313 0.005834229
0.056067176 -0.040859357 -0.055625815 0.07267686 0.015769891 -0.023309337 -0.0052301 -0.030888084
-0.012996809 -0.05420069 -0.04783543 -0.039178308 -0.03765939 -0.024340851 0.04821959 0.030162651
-0.0051835016 0.035943933 -0.063769564 0.007360838 -0.016644903 0.02536128 -0.015645793 -0.016609706
-0.03539078 0.017545916 -0.05537615 0.023765989 -0.015463541 -0.023596123 -0.05305381 -0.018175984
-0.06716575 0.012243921 0.033987407 0.024341661 0.06371147 -0.023965793 -0.047782958 0.0075059095
0.05307404 -0.01752549 0.053981006 -0.023243634 -0.002562558 0.012796439 0.027582433 -0.024460604
0.07173926 0.015283303 -0.01587116 0.06424269 0.066066675 -0.003680908 0.019433081 0.009199876
-0.057470992 0.0071334327 -0.044878103 -0.007107604 -0.019367158 -0.049089067 -0.027725307 0.06572564
0.07061452 -0.001038527 -2.1126327e-05 0.007369064 -0.02173921 0.060635563 0.029175637 -0.062782146
0.003794828 0.056398273 0.010923658 -0.041741516 0.026904983 -0.052652862 -0.036391012 0.064685665
0.032956433 -0.001513102 0.023687482 0.06576292 0.039587542 -0.0053117173 -0.026341757 0.06900771
0.0022446606 -0.027689254 -0.060560804 -0.010175372 -0.060727894 0.051572755 -0.009732056 0.054521553
0.04400478 0.002078386 -0.009325352 0.03178435 0.03821671 0.056489367 0.0013268875 -0.03829827
0.019077068 -0.024237815 -0.011528327 0.066692255 -0.00041595282 -0.044401396 -0.025401948 0.010160821
-0.0277469 -0.06808993 -0.040909756 -0.006185038 -0.00519184 0.043238625 0.013682171 -0.06313956
-0.007433113 0.05774201 -0.0021012924 -0.03774932 -0.026521325 -0.0008395494 0.06630017 0.052928537
-0.054559838 -0.0048832325 0.06469221 -0.034812175 0.05691592 0.043278467 -0.0641024 -0.06248013
0.069995314 0.019373722 -0.056660805 -0.07069817 -0.04573043 -0.06411958 0.052031107 0.029873589
-0.03873008 0.065016165 0.058427636 0.028233197 -0.039460465 0.014350257 -0.014381534 -0.058995422

Stock_price_layer.weight_hh_l0 f4 [800, 200]
00000000: 83af 75bd a91b a6bc 4207 0f3b d76c 1fbd
00000010: 7e8c 59bd d53a 403b a81e 913d 9727 883d
00000020: 820b 893d a79f c3bb 7335 853d 7c91 77bd
00000030: 87c8 eebc 9a15 8f3d ba56 543d e892 283d
00000040: 30c7 7d3c e8d2 00bd 20cb 85bd e75a 883d
00000050: a69a 2ebd a2f8 63bd 3b02 803c 57e7 83bc
00000060: 89e1 6bbd 736e 4ebd e2f3 c7bc 8f28 8cbc
00000070: fc55 90bd 2781 0ebd 55f4 8a3d 2639 b23c
00000080: 5b87 5cbd ca45 833d bba2 8bbd 001d 4abc
00000090: 2139 e5bc 2909 d93c f3a0 623d 2f64 55bd
000000a0: f4b9 40bc 4888 71bd 9a78 cebc fc29 b83b
000000b0: 46de 053d 6e5c ef3c 4812 79bd 5056 853c
000000c0: a73d 8e3d 8a22 133d ff7a 613d 6ceb ad3c
000000d0: 104f b8ba 5b91 19bd 2780 ebbb a2aa 2fbd
000000e0: cb3f 84bc a187 173d 6d83 80bc bb1e 7f3c
000000f0: 805b 74bc 30fd 4cbc d7de 203c 0564 443d
00000100: b7c9 4dbc 2ad5 b0bc 5c17 54bc d323 28bd
00000110: d316 55bc 46d7 d1bc f73a 6abd 32ff be3c
00000120: 02f8 29bd 38c6 683c ed43 12bb fb6e 08bc
00000130: 5b88 98bc 068a 4b3d 3f1b 55bc f9e1 f9bc
00000140: bac9 1f3d f608 253d 9b81 23bc 2b13 91bc
00000150: 950a e53c 53b2 6d3d e2b4 f8bc 0509 87bd
00000160: b2fa 9e3b fc4a 8aba 29d4 883d 88c3 163b
00000170: 84d5 3a3d d892 45bd e705 3d3d 1b91 13b8
00000180: 3c02 893d 4809 4abd fc7d 403d e50f 143c
00000190: c551 6f3d 5822 33bd 7ed6 f73c e398 ed3c
000001a0: 190a 22bd 6b9a 32bc 8861 2cbd 56b0 8abd
000001b0: a298 a2bc bf2a 4dbd 5fba 7dbc ef06 23bd
000001c0: 29fb bfbc 2606 60bd d283 90bd 7dbc f43c
000001d0: 51c2 9a3c 4f71 183d 3a31 8f3c e794 1b3c
000001e0: 174d e5ba 59bb 623d 7e3a 1fbd c568 f83c
000001f0: e919 26bd 2543 19bd 3826 683d 2497 b9bc
00000200: 2ef4 77bb 8bf3 2abd 950b 43bc dff9 6a3d
00000210: 06ad 7abd 0d17 843d e363 90bc d0cc 213d
00000220: 7f6f abbc c738 90bb f445 1b3c 3f5c e6bc
00000230: 58c3 54bc 7f19 3bbc 0c1f f63c 3cb1 583d
00000240: 7887 a239 a571 1b3c 4fec 1b3d 7d07 f73c
00000250: 941b b0bc 7076 50bd 152d 61bd a876 8d3d
00000260: 1a3f 10bc 380b 0bbd 7ecd 853d 126f 883d
00000270: 15eb 29bc 8836 d43c e173 523c 695d 89bb
00000280: 7592 273d 2e41 a93b fe53 9c3c 2bef 2e3d
00000290: 52c6 7aba f888 233d 6086 833d 92a9 9b3c
000002a0: bb8a 8abb 646e 633d b416 a7bc bd37 12bd
000002b0: 2454 cbb9 22ac 2c3d 07a9 043b 099b 7f3c
000002c0: bddf c23c 4c95 833c 2ba1 083c 390c a43b
000002d0: 1c2d e63b 2bb8 743d 7d67 1d3d 4407 3f3d
000002e0: 65ca 7a3a 59d6 86bd 5755 adbc 2d91 8f3d
000002f0: fc0b efbc f76f 2ebd 38d1 d7bc 9a40 963c
00000300: cf2c 9c3c 1803 8c3d 30a5 d8bc 6928 e6bc
00000310: 6c02 f0b8 652d 5e3c 7a01 68bd ee56 bcbc
00000320: 3393 bdbc 5892 2a3d ddf1 b03c 8300 d93c
00000330: cdb8 3c3d 4cbd 0a3c 73cf c83c 066e 53bd
00000340: 9de0 293c d774 59bc df2e 5cbd 4c63 6ebd
00000350: 64a9 87bc 7d6c c1bb 5b0a 593d 8b95 5dbc
00000360: 3fd0 053d 1c73 893d 7e79 e23c 871c 33bb
00000370: b740 0ebc b75a 7ebd a86c 62bd d379 20bc
00000380: 2cca 26bd caad 823c 0325 933c e734 acbc
00000390: af20 193d 6381 4e3d 067d 84bd 6bca 55bd
000003a0: 8975 503d a830 63bd 6187 01bc d68c 71bb
000003b0: 3d9c 3cbd 2a81 a6bb 26cc 443d 18c8 28bd
000003c0: a7b9 953c b25c 26bd d389 853d f7ac 84bc
000003d0: 9905 613d ecea f33c cf51 2b3d 01e0 0abc
000003e0: 3207 dc3c 237f 383c 7363 563d aef1 6a3d
000003f0: 4b93 f83a 60f7 f7bc b475 72bc 75ec 503d
-0.059981834 -0.020276861 0.0021824394 -0.038922157 -0.0531125 0.0029331942 0.07085925 0.06648176
0.06691648 -0.00596996 0.06504335 -0.06044148 -0.029148353 0.06986542 0.05184052 0.041155726
0.0154893845 -0.031451136 -0.06532884 0.06657963 -0.042627953 -0.055657037 0.015626064 -0.016101522
-0.057588134 -0.0503983 -0.024408285 -0.017109184 -0.0704765 -0.034791138 0.06784884 0.021755766
-0.053840023 0.064097956 -0.06818148 -0.012336016 -0.027981343 0.026493626 0.055329274 -0.052097496
-0.011763085 -0.05896786 -0.025203992 0.0056202393 0.03268268 0.029218879 -0.06080845 0.016276509
0.06945353 0.03592161 0.05504894 0.021230422 -0.0014061648 -0.037492137 -0.007186908 -0.042887338
-0.0161437 0.03699458 -0.015687669 0.015571292 -0.014914393 -0.0125115365 0.009818754 0.04794695
-0.0125603 -0.02158602 -0.012945022 -0.04104979 -0.01300593 -0.025615346 -0.05718514 0.023315046
-0.041496284 0.014207415 -0.002231832 -0.008327241 -0.018619707 0.049692176 -0.013006984 -0.03050326
0.03901074 0.04029175 -0.009979631 -0.017709335 0.027959147 0.05803139 -0.03035969 -0.06593517
0.0048516626 -0.0010550912 0.06681091 0.002300473 0.04561378 -0.048235744 0.046148207 -3.518267e-05
0.06689879 -0.049325258 0.046995148 0.009036993 0.05842759 -0.043733925 0.030253645 0.029003566
-0.03956041 -0.010901074 -0.0420852 -0.06771915 -0.019848172 -0.050089594 -0.015486329 -0.039801534
-0.023435192 -0.054693364 -0.07056393 0.029875034 0.018891485 0.037217434 0.017479528 0.00949595
-0.0017494288 0.05535445 -0.038874142 0.030323396 -0.040552054 -0.03741755 0.056677073 -0.022655077
-0.0037834751 -0.041736167 -0.011904617 0.057367202 -0.061200164 0.06449709 -0.017625755 0.039501965
-0.020927189 -0.0044012996 0.009477127 -0.028120158 -0.012986027 -0.011419653 0.030044101 0.0529034
0.0003099998 0.009487544 0.03806716 0.030154938 -0.021497525 -0.0508942 -0.054974634 0.069073975
-0.008804107 -0.033946246 0.06533335 0.0666181 -0.010370989 0.025904909 0.0128450105 -0.0041920436
0.040911157 0.0051652407 0.01908302 0.042708557 -0.0009566295 0.039925545 0.06422114 0.019001756
-0.0042279637 0.0555252 -0.020396568 -0.035697687 -0.00038781867 0.042156346 0.002024235 0.015600928
0.023788327 0.016062401 0.008339207 0.00500634 0.0070244204 0.05974595 0.038428772 0.04663779
0.00095669023 -0.06583852 -0.021158857 0.07010112 -0.02918052 -0.042587247 -0.02634488 0.018341351
0.019064335 0.068365276 -0.026445955 -0.028095441 -0.00011444543 0.013560628 -0.056642033 -0.02299067
-0.02314148 0.04164347 0.021599704 0.026489502 0.046074677 0.008467983 0.024512982 -0.0516186
0.010368493 -0.013272486 -0.053755637 -0.058200166 -0.016560264 -0.0059028254 0.05298839 -0.013524423
0.032669302 0.067114085 0.027645823 -0.0027330236 -0.008682421 -0.06209823 -0.055279404 -0.00979467
-0.04072015 0.01595201 0.017961985 -0.02102132 0.037384685 0.05041636 -0.06469159 -0.052194994
0.05089334 -0.055466324 -0.007905812 -0.0036857626 -0.046047438 -0.0050813155 0.048046254 -0.04120645
0.018277002 -0.040615745 0.065204285 -0.016195757 0.05493698 0.029775105 0.041826066 -0.008476258
0.0268589 0.0112607805 0.052340936 0.05735939 0.0018964795 -0.030269325 -0.01479857 0.051006753

Stock_price_layer.bias_ih_l0 f4 [800]
00000000: 9186 463b d564 eebc fa2c 0d3d a86a 45bd
00000010: 7225 86ba b666 a6bc 768d 953d e51d 783c
00000020: 1d6d 653d dce9 38bd 7175 633c fab9 4dbd
00000030: efba 9dbc 63b6 84bd 94f4 0fbd b366 f63b
00000040: a66a 45bc cb29 8dbc bd67 43bd dd2a 09bc
00000050: abe3 8c3d bcf5 d4bc 3a4d 2a3a db0d 54bc
00000060: fc41 57bd f0a0 fbbb bae6 433d 72e6 633d
00000070: f860 823d fec8 3d3c c29c 143d cb29 06bc
00000080: 4e8d 32bd 2dd8 963d c75d 893d 371e 04bd
00000090: b9eb 54bd 4fba 883d 8dda 0b3d af11 613d
000000a0: de35 aebc 6c9c 30bd 3e07 623c 8bc3 b53d
000000b0: 5088 fbbb 9bf3 52bd 0ae7 d0bc 1f0a b2bc
000000c0: 98b0 ecbc 1786 633c ad82 e03a f311 643d
000000d0: 590e e3bc 3738 a8bc 74ef 613d f21c 2d3d
000000e0: 7c8d 2f3d 32ac 56bc e645 4e3d 8191 2cbb
000000f0: 5e05 a23c 81d3 a03c 48ad 0e3d 13d6 b4bb
00000100: 260b 5cbd 9be9 883c acc7 31bd e807 e03a
00000110: 1c59 0dbd 728f 51bb ffd8 75bd 5517 db3a
00000120: 40ab 28bc 1540 5bbb e96b 403d 63c0 c73c
00000130: 4b81 983c 6be2 3e3c cd01 c63d 9d34 683d
00000140: b001 453a 5ec2 78bd 7ab1 863d 130c 77bc
00000150: a8ab 5c3d a8c2 7d3d 1615 8b3d 454a 8f3d
00000160: 7f31 893d 2ce3 bbbc 1789 f43a 0519 7fbd
00000170: c643 59bd b885 fdba 3656 ab3c a093 09bc
00000180: 2b8d a7bc b046 7d3c 4d2e 043b 0c61 82bb
00000190: a99f 893d 86fb 3e3b daa9 2dbd c5bb 2bbd
000001a0: 77d1 0bbd d6b7 fe3c fd9a 0dbc c6d2 03bb
000001b0: 1d98 2bbc 1a1f 103d d949 72bd 7693 173d
000001c0: 434b a23d 3c54 8dba 535f 613d 4ff5 52bd
000001d0: 4c5a 043d 8442 643b 9440 33bd 8edd bbbb
000001e0: b768 b23c ff4a 0abd 894e 69bd c657 52bd
000001f0: 583c afbc 79d5 1ebd 151d 163d 935e 413d
00000200: 5a06 70bd 884a fd3c 065a 8f3d 8d17 cfbb
00000210: 038b a7bc ee9e a93c 7af7 79bd f671 873d
00000220: d23a edbb e597 453c 2468 74bd 5910 c13d
00000230: 541a 85bd 2ea1 623d ca22 41bd efa6 f33b
00000240: 10e0 5abd a811 a9bb 57db 81bd 6c32 f13c
00000250: 70fa 5f3d 6ff0 3dbd e5fb 183c 468b 63bd
00000260: b0df a13c e216 ad3c 41a9 2dbd 584a 313d
00000270: 6e6e 853c 6e81 873d 57df 84bd ec39 313b
00000280: 7093 bd3c 6aae 013d d9f4 1a3d dc57 013d
00000290: 61e2 643d 95ca 023d 447d 723c 33e2 85bd
000002a0: f3f5 3bbd 20ae eb3c dd26 6b3d a740 ff3c
000002b0: 5137 a83d 9f9e 873d 8c95 45bd e1db 9a3b
000002c0: b98c 64bd 78eb 80bd 3f88 263c ba0a 353d
000002d0: f4f1 203d 3492 4fbb 97b7 70bc d983 db3c
000002e0: 94c9 973c ba2a 3b3d a549 393c 7eb8 2ebd
000002f0: c9e8 823d 9791 18bd f856 283d 7148 823b
00000300: aa86 1e3c 2d47 823d e1ff 313d f47a 4c3d
00000310: 023f 9d3d d685 5fbc 9df3 d63c 393a 4cbd
00000320: 7d4d 6f3c 7efa d33b 8f3d 873d a04d 78bc
00000330: 817e 1f3c 1a0d 0b3a b344 843c e0ba 043d
00000340: 05c1 45bd abd8 d7bb 6adb b2bc bb9c 523d
00000350: 31bd 87bd f91b 543d a29e 443c 6580 bfbc
00000360: b321 3dbc e4ee 83bd b8e4 0b3c 0153 f0bc
00000370: 1fbf b73c 79bc 34bc dff4 5fbd 95cd 56bd
00000380: 2f64 483d 90fb ceba 4b8c f638 4d49 283c
00000390: 79ab 373d 983e 33bd df83 7bbd 126e 543d
000003a0: 14e8 dd3c 6687 69bd 73e1 483d 698e 40bd
000003b0: 7254 10bd 142d 813d c4e0 983c b7d9 13bd
000003c0: 2bf7 f3bb 71c3 b33c aab0 f1bc 9a6e 833c
000003d0: 1231 02bc 1287 6fbc 1000 bd3c 4124 afbc
000003e0: c94a 88bb e694 343d 51e9 4c3d efe3 0e3d
000003f0: 73e9 65bd c357 323d e286 873d 3073 253d
0.003029261 -0.029100815 0.03446672 -0.04819742 -0.0010234548 -0.020312648 0.07302372 0.015143846
0.05601226 -0.0451449 0.013882981 -0.05022619 -0.019254176 -0.064801 -0.035145357 0.007519567
-0.012049353 -0.017231843 -0.047706354 -0.008372036 0.06879362 -0.025996082 0.0006496493 -0.0129427565
-0.052553162 -0.0076790974 0.04782746 0.05563969 0.063661516 0.011583565 0.03628231 -0.008188675
-0.04359179 0.07365451 0.0670734 -0.032255378 -0.051982615 0.066761605 0.034143973 0.054948505
-0.02126592 -0.043117926 0.013795672 0.088751875 -0.007676162 -0.05150185 -0.025500793 -0.021733342
-0.0288928 0.01388695 0.0017128788 0.05568118 -0.027716802 -0.020534618 0.05516 0.042263933
0.04285954 -0.013102578 0.05035963 -0.0026331844 0.01977795 0.019632103 0.034833223 -0.0055186837
-0.05372157 0.016712954 -0.043403313 0.00170922 -0.03450881 -0.003197637 -0.060021397 0.0016715328
-0.010294735 -0.0033454944 0.04697791 0.02438373 0.01861634 0.011650662 0.09668312 0.0566908
0.0007515205 -0.060732238 0.0657682 -0.015078562 0.05387464 0.061953217 0.06791131 0.06996588
0.06698894 -0.022935472 0.0018656579 -0.06227972 -0.05304315 -0.001934222 0.020915132 -0.008397013
-0.020453056 0.015458748 0.00201692 -0.003978854 0.06719906 0.002914162 -0.04239831 -0.041927118
-0.034135308 0.03109352 -0.008642909 -0.0020114644 -0.010473278 0.03518591 -0.059152458 0.037005864
0.07924511 -0.001078255 0.05502255 -0.051503476 0.032312676 0.0034829685 -0.04376276 -0.0057331985
0.021778448 -0.033762928 -0.056959663 -0.05135324 -0.021391079 -0.038777802 0.03664883 0.047209334
-0.058599807 0.030919328 0.069995925 -0.006319946 -0.020452028 0.020705666 -0.061027028 0.06613533
-0.007239678 0.01206014 -0.05966963 0.09426946 -0.06499162 0.055329494 -0.047152318 0.0074356715
-0.05343634 -0.0051595755 -0.06340664 0.029442988 0.054682195 -0.046371873 0.0093374 -0.055552743
0.019759983 0.021129075 -0.04239774 0.04328379 0.016288009 0.06616484 -0.06487911 0.002704258
0.023141593 0.031660475 0.03783116 0.03157793 0.055879954 0.03193148 0.014800373 -0.06537285
-0.045888852 0.028769553 0.05741011 0.031158758 0.08213676 0.066220514 -0.048238322 0.0047259186
-0.055798266 -0.06294912 0.01016432 0.044199683 0.039293244 -0.0031672837 -0.014692209 0.026796268
0.018528737 0.045695044 0.011309062 -0.042656414 0.063920565 -0.03724822 0.041098565 0.003975921
0.009675661 0.06361232 0.043456916 0.049921945 0.076780334 -0.013642749 0.02623921 -0.049860213
0.014605877 0.00646907 0.06603538 -0.015155226 0.009734751 0.00053043815 0.01614604 0.03240478
-0.04827978 -0.006587108 -0.02183314 0.051419 -0.06627882 0.05178449 0.012000712 -0.023376653
-0.011543679 -0.06442049 0.0085384175 -0.029336454 0.02243 -0.0110312635 -0.054676887 -0.052442152
0.048923668 -0.0015791524 0.00011756326 0.0102713825 0.044841263 -0.043760866 -0.06140506 0.051862784
0.027088203 -0.05701389 0.04904313 -0.047010813 -0.035236783 0.06307426 0.018661864 -0.0360963
-0.007445236 0.02194378 -0.029503185 0.01604395 -0.00794627 -0.014619606 0.023071319 -0.021379592
-0.0041593057 0.044087313 0.050027195 0.034885343 -0.056130838 0.043540727 0.06617524 0.040393054

Stock_price_layer.bias_hh_l0 f4 [800]
00000000: a3d3 843d a874 da3c 1bd9 5a3c b00e 523d
00000010: b23d d6bc 60da 843d f0ca cebc 237a 88bd
00000020: efa8 51bd 97d0 a5b9 93c7 0d3d fc3e 713c
00000030: c3ea 773d 9d4e debb 2a41 523d e181 903d
00000040: 2a9a 473d 4bb0 ec3b cb6a f83a 14ca 0c3d
00000050: a963 3c3d 674a 2cbd 7198 69bd 064a c9ba
00000060: 4994 4d3d 88fe 31bd 7e4b 5bbd 8ecd b5bc
00000070: 5b5e 83bd c0a7 39bd 0279 2a3d 6b9d b53c
00000080: 1b0f 99bc 603a 783d 875a 0cbb fcb9 023d
00000090: 8745 d13c a0f1 44bc bceb 563d 7f05 933d
000000a0: 39f4 37bd b135 ccbc a4df 0f3d d9c5 2b3d
000000b0: 17ea bc3c 6494 3ebd d876 c33c d744 273d
000000c0: 2bff 173d 9101 03bc 48f6 bd39 3565 003c
000000d0: 3621 03bd 363f 803b 37ab 6ebb 487e caba
000000e0: c6a5 3a3c 81bb 54bd 3e5e 983c 1b0b b83c
000000f0: 6590 77bc a44d 01bb bee2 9abc 0f5e 4c3d
00000100: fc11 6f3d 7d9f 8c3d b11e 003d 8b79 773d
00000110: bd77 7cbd 3687 e9bc 7310 c2bc e452 303d
00000120: 2480 54bc af0b 623d 77a4 c83c 45b5 c83c
00000130: 7eb7 a9bc 6c21 123d 6a49 11bc a0a3 a53d
00000140: 92b3 633c e5ca d43c 7416 0cbc 7d98 1d3c
00000150: 145d f9bc 6361 853d 9390 873d 4cf2 8b3d
00000160: 4036 963c 9ba0 743b 6aa1 fd3c de9f 5fbd
00000170: e0d1 4dbd 7702 253d 7b18 ff3c 4217 8dbc
00000180: 66f0 1bbb ec56 94ba 5e7d f23c 0f11 69bb
00000190: 9803 443d e930 893d 83da 483c ad6d 4e3b
000001a0: 210d 333d c361 2f3d ccb8 7abd 068f 173d
000001b0: 8924 e1bc 1b77 143c e9cb 8d3c dca8 22bd
000001c0: 356f 4ebd a661 7fbd 5342 683d 8dc1 723d
000001d0: 9ba4 25bd 62d1 9e3c 4884 be3c 9a87 d4bc
000001e0: 6cbf 08bd c971 09bd 8301 3a3c d64f 3c3d
000001f0: bc00 8e3c 30c5 d13b 7311 49bd 16d1 6dbd
00000200: db42 0dbd e8ec 713d 6e7a 053b c77c 733d
00000210: 88f2 943d c5c4 f4bb 17b1 8dbd 1a4c 993d
00000220: e535 5c3d 0835 173d c890 f1bc 80f8 663d
00000230: 96cc 8c3d 2b5b 5c3c ceec 82bd e5e8 43bd
00000240: 10d8 30bd 7cd5 44bd 217a fe3c b61b 823c
00000250: 12b4 5e3d bdcc 833c ff6b 64bd f61d 3c3d
00000260: aef1 00bd cac2 ca3c 4bc3 1bbc 7ee3 43bd
00000270: 7e67 0bbd bc7b c93c d3cb 8c3c 189f 4ebd
00000280: 1ea1 c9bb 92e2 df3c bf31 f6bc dd2e 3b3d
00000290: 982f 4cbd 34a8 8b3d a757 733d c1c0 3fbd
000002a0: b8d9 b0bc 3c09 36bd 9436 8ebc 5e92 12bd
000002b0: 4d0d ed3c beff ff3a e307 8d3d 59a8 42bc
000002c0: 763d 953b 09f4 2ebd 03ef 183d e6dd 823d
000002d0: c5fe 3ebd 31d7 44bd a542 7b3d 18f8 07bd
000002e0: 9c84 c9bc d5df 8fbc b111 87bd b092 ec3b
000002f0: 401b 593d e1fc ccbc d0b5 a23a f835 ffbb
00000300: a64d aabc 5f30 d0bc 1f2c a13c 4449 793d
00000310: 42d7 703d 887d 683d 4699 a53d 2118 bf3c
00000320: f099 adbd 428d ae3c 4027 8abd 697a 05bd
00000330: a502 a5bc ebdc 93bd 7d93 41bd f7b8 a33c
00000340: 3560 28bd b96b b9bb 7413 ca3c 9162 403c
00000350: 9b9f 91bd 0315 963a 3ac9 7bbd 45b0 443c
00000360: 5bdd 073d 924d debc 1370 603d d137 cfbc
00000370: 77c4 913c 781a a1bc 8bd8 0cbd c472 b33c
00000380: d1c7 293d 2f84 4ebd 397b 2e3d f365 11bd
00000390: 5dab 80bd 8e39 3c3d b21e 1d3d eb8d f0bc
000003a0: 5878 f1bc 1e08 f23c e5b2 85bd 2308 85b9
000003b0: e293 5a3d c366 363c 2329 92bd feb5 2c3d
000003c0: ca59 853d b059 0d3d 5d7e 52bc 2aaa 46bc
000003d0: 023a a33c 2cd0 21bd 25bd 52bd 7d78 4e3c
000003e0: 7960 12bc aa62 4d3d dc4c 63bd 6b7a 693d
000003f0: 64a2 97bd 429d db3c b6e1 2d3d 2d9c 753b
0.06485679 0.026666954 0.013357426 0.05128354 -0.026152465 0.06486964 -0.025243253 -0.06663921
-0.0511865 -0.00031626664 0.034614157 0.014724489 0.06052662 -0.006784274 0.051331677 0.070560224
0.048731007 0.007223164 0.0018952725 0.034372404 0.04599348 -0.042063143 -0.057030145 -0.0015357144
0.050190244 -0.04345563 -0.05353879 -0.022192743 -0.06414481 -0.045325994 0.04161931 0.02216979
-0.01868396 0.060602546 -0.0021416263 0.03191565 0.025545849 -0.0120204985 0.052470908 0.07178783
-0.044910643 -0.024927946 0.03512539 0.04193673 0.023060841 -0.046528235 0.02386038 0.040837135
0.03710858 -0.007995979 0.00036232383 0.00783663 -0.032014094 0.0039137853 -0.003641797 -0.0015449012
0.0113920625 -0.05193663 0.018599626 0.022466233 -0.01511011 -0.0019730115 -0.018906947 0.04989439
0.05836676 0.068663575 0.03127927 0.060418647 -0.06163763 -0.028506856 -0.023689484 0.0430478
-0.012970004 0.055186924 0.024492485 0.024500499 -0.020717379 0.035676405 -0.008867601 0.080878496
0.013897793 0.025975654 -0.008550275 0.009618876 -0.03043989 0.06512716 0.06619372 0.06833324
0.018336415 0.0037327174 0.030960757 -0.05459582 -0.05024898 0.040285554 0.031139603 -0.017223004
-0.0023794412 -0.0011317409 0.029600795 -0.0035563146 0.04785499 0.06698782 0.0122591285 0.0031498477
0.043713693 0.042817842 -0.061211392 0.037001632 -0.027483242 0.0090616 0.017309146 -0.039711818
-0.050399024 -0.062348984 0.056703877 0.059266616 -0.040440183 0.01938695 0.023256436 -0.025943566
-0.03338568 -0.03355578 0.0113528995 0.045974575 0.017334335 0.0064016804 -0.049088906 -0.058060728
-0.034487586 0.059063822 0.0020367163 0.05944517 0.07272822 -0.007469746 -0.06918543 0.07485218
0.053762335 0.03691581 -0.029487982 0.05638933 0.06874959 0.0134494705 -0.06392823 -0.047829527
-0.043174803 -0.048055157 0.031064095 0.015882354 0.054370947 0.016088838 -0.055767056 0.04592701
-0.031480484 0.024751086 -0.009507011 -0.047824375 -0.034034245 0.024595134 0.017187035 -0.050444692
-0.00615324 0.027329717 -0.030053018 0.04569899 -0.049850076 0.068191916 0.059409764 -0.046814684
-0.021588191 -0.0444424 -0.01736001 -0.035784118 0.028937006 0.0019531173 0.0688627 -0.0118809575
0.004554446 -0.0427132 0.037337314 0.0638998 -0.046629686 -0.048056785 0.061342854 -0.033195585
-0.024599366 -0.017562786 -0.06595171 0.007219635 0.053004503 -0.025022926 0.0012413803 -0.007788416
-0.020788979 -0.02541369 0.019674359 0.060860887 0.058799036 0.05676034 0.08085875 0.023326935
-0.08476627 0.021307591 -0.067457676 -0.032587443 -0.020142863 -0.07219871 -0.047259796 0.019985659
-0.041107375 -0.0056585935 0.02466748 0.01174225 -0.071105205 0.0011450354 -0.0614712 0.012004917
0.033170085 -0.027136598 0.054794382 -0.02529517 0.017793877 -0.019665942 -0.0343862 0.02190531
0.041450325 -0.05041903 0.042597983 -0.035497617 -0.06282685 0.045953326 0.03835935 -0.029364547
-0.02947633 0.029544886 -0.06528262 -0.000253738 0.05336369 0.011132899 -0.071367525 0.04216575
0.065112665 0.03450936 -0.01284751 -0.012125531 0.019925121 -0.03950517 -0.051449914 0.012601969
-0.008934134 0.05014292 -0.05549322 0.057001512 -0.074040204 0.026808385 0.042451583 0.0037477121

DNN_Layer.weight f4 [100, 200]
00000000: 0ed7 89bd 609a 38bd 4cba eebc c1c7 08bc
00000010: d5fa da3c 6ae6 7f3d 0bfc 71bd b71e 353d
00000020: e11d 41bd 795f 84bb d4f9 15bd 93d6 86bd
00000030: 9951 88bc 18ad 2abc 89a8 21bb 5218 233d
00000040: 74b3 3abb aaf2 8fbd c21c d6bc 2e8c d1bc
00000050: 7136 dcbc 00e6 d03c dac1 71bd 709a 61bc
00000060: 0326 7a3d d159 d3bc 52c3 e23a 8f8f b7bc
00000070: 6b78 58bd 17bf 50bd 6730 713d 03b2 303d
00000080: 5bf8 79bd 0ad4 ae3c 6d4e 6e3d 1196 a03c
00000090: 6257 493d 79c5 a5bb 240a 0fbd 1f4f 2e3d
000000a0: 8d37 f93c 9789 80bd 9518 73bd 95cf 1d3d
000000b0: 79d1 103d 40ca 99bb 3ec3 bbbc 2191 e23c
000000c0: 161f 35bd b29b 093d 6c3b 16bd e60a 073d
000000d0: 0edc c93c b92e 953c 789f 6bbd 9e6d 393d
000000e0: 7db0 8ebd 33f4 e4bc eddb e3bc ee31 04bd
000000f0: c93d e9bb 01e1 05bd 3565 493d 385c 11bc
00000100: dd8f 0bbc e03e 503d 76ef 563d 27f4 fa3b
00000110: 8b5a c43c 6028 ab3c 291a a13b 4d35 c5ba
00000120: 7d49 103d 1830 c13c 1519 b5bc 55fd a2bc
00000130: 5fd7 863d 9158 81bd 8e54 e8bc d954 933c
00000140: de73 e9bc 3a86 2e3c 14a2 433b 19ad 2cbd
00000150: 762c c2bc dced 70bc dc5e 0b3d 6f81 51bd
00000160: 3911 24bd 5af1 1dbc 4777 d2bc 4e9b e8bc
00000170: 05f1 7abd c3f7 83bc 84ae 41bc ad11 1a3d
00000180: 7249 5abc ecef 8d3d 20dc ca3c 8a77 51bd
00000190: 23e0 643d e6d1 5d3d 0854 ce3c 3c01 4abd
000001a0: d71c 6ebd a419 8e3c 0e78 85bd 478c 8f3c
000001b0: c7dc 463d a393 2d3d 898e 6e3d 5cf3 4ebc
000001c0: c8c1 b8bc ed78 723d cebc d93c 4fb8 14bd
000001d0: c87f 393d 378f 20bd 4b62 78bd c5e1 1b3d
000001e0: 2b25 01bd 478d 33bd 80f4 00bd 011f c63c
000001f0: 951f 8bbd c9e4 4d3d a08b 823d 0a98 1b3d
00000200: 5f96 0e3d 7620 053d 9e0c 5dbd e860 863c
00000210: 40cc 1bbc 3e6f 0abd d147 333b 0423 a6bc
00000220: ea40 723c 06dc 703d 57d3 24bd 221f 1ebd
00000230: 535e e93c 67bf 04bd a306 7f3d 6b87 163d
00000240: 3584 233b 8ffc 79bd b4f5 b63c b745 c73c
00000250: 38de 92bc 7c13 e43c 0494 163d 5589 273d
00000260: ce9d 8f3c ba61 833a 9bd3 c23c c3f9 c7bc
00000270: 173e 2b3d 3808 4cbc 9e8d 623b 8684 213c
00000280: a3a4 db3c 8549 0abd d41f 7f3d 4f1c 2bbb
00000290: d37f d4bc e2e2 e63c 75db 5d3c 271e 77bd
000002a0: 1dc7 29bc cdbe c6bc ab1c c63c 090d 3c3d
000002b0: 2b67 0bbd bda9 17bc 5ab6 a1bc 8a03 273d
000002c0: 411e be3c 423e 583b de95 123d ed08 703c
000002d0: 5e3e 743d 48b5 163c e728 8e3d 2f8d 86bd
000002e0: 9235 283d 9173 983c cad3 6abd c8fd 103d
000002f0: f8a1 823d 7661 8f3c 5ec4 443c 8968 c5bc
00000300: f850 343d 0114 2f3d 86c7 4c3d 8958 7ebc
00000310: 26c9 97bc ab43 90bd bc7f c03c 31ea 543d
00000320: 9302 cc3c c381 c1bc 09c4 a53b b695 473d
00000330: f485 95bd cd61 13bc b1e9 b8bc 3608 84bd
00000340: 8edb 27bc e73a 983d 6014 64bd 5414 313d
00000350: dc7a 64bc d856 e7bc ef39 25bc fda5 833c
00000360: d8cf 8cbd 47eb 31bd ff1b 7dbd edc6 763d
00000370: 9fb0 b6bc 69a9 abbc e5a6 d0bc 7ea7 12bd
00000380: aa96 873c 153f 0dbb a341 843b 78ae 29bd
00000390: a15c 9a3d 1c9c b83c ee05 56bd 5962 50bd
000003a0: d7f7 8b3d b70e 893c 016d 46bd 4e92 26bd
000003b0: 93ca 89bd 09e3 95bd b39c e13a 30fd 273d
000003c0: ec44 b6bc d729 69bd ff6a 553d 4890 43bd
000003d0: 5a25 c63c f924 5dbd 480c 383d 9586 bebc
000003e0: bf04 793d 9cf7 19bc 25db 56bd 1515 36bd
000003f0: c3ca 0ebd fbc3 653d 9b84 fb3b 22bd 993c
-0.067304716 -0.0450691 -0.029141568 -0.008348406 0.026730934 0.0624756 -0.059078258 0.044218745
-0.047147635 -0.0040397015 -0.036615208 -0.065838955 -0.016640471 -0.010417245 -0.0024667105 0.039818116
-0.002848831 -0.07028706 -0.02613676 -0.025579538 -0.026881428 0.025500298 -0.059022762 -0.013769731
0.061071407 -0.025799664 0.0017300642 -0.022407321 -0.052849215 -0.050963487 0.05888405 0.043138515
-0.061027866 0.021341342 0.05818026 0.019602807 0.0491556 -0.005058941 -0.03492178 0.042555925
0.030421996 -0.06276243 -0.059349615 0.038528044 0.03535602 -0.0046932995 -0.022920247 0.027657093
-0.0442191 0.03359575 -0.036677763 0.032969378 0.024641063 0.018210756 -0.057525128 0.045270555
-0.06967256 -0.027948475 -0.02781483 -0.03227418 -0.007117961 -0.032685284 0.049168784 -0.008872084
-0.008518186 0.050841212 0.05247446 0.0076584998 0.023968956 0.020893276 0.0049164486 -0.0015045792
0.035226334 0.023582503 -0.022106687 -0.019896189 0.065840475 -0.06315721 -0.028360631 0.017984794
-0.028497633 0.010652119 0.0029851245 -0.042157266 -0.023702841 -0.014705148 0.03402601 -0.051148828
-0.040055487 -0.009640062 -0.025691641 -0.028394368 -0.06126501 -0.016109353 -0.011821393 0.037614513
-0.013323175 0.06930527 0.024763167 -0.051139392 0.055877816 0.054155253 0.025186554 -0.049317583
-0.058132973 0.01734621 -0.06517039 0.017522944 0.048550393 0.042377125 0.0582414 -0.012631264
-0.02255334 0.059197355 0.026579287 -0.036308583 0.045287877 -0.03919908 -0.060640614 0.038057107
-0.031529587 -0.043835904 -0.031483173 0.024184706 -0.06793133 0.050267015 0.063742876 0.037986793
0.034811374 0.03250166 -0.05396711 0.01640363 -0.009509146 -0.033797495 0.0027356038 -0.020280369
0.0147859845 0.05880358 -0.040240612 -0.03860391 0.02848736 -0.032409098 0.06226219 0.03675024
0.0024950628 -0.061031874 0.022333957 0.024325235 -0.017928228 0.027841322 0.036762252 0.040902454
0.017531302 0.0010023632 0.023782542 -0.024411088 0.04180726 -0.012453131 0.0034569274 0.009858256
0.026811903 -0.03376152 0.062286213 -0.0026109403 -0.025939858 0.028184358 0.013541092 -0.06033149
-0.010362414 -0.024260903 0.024183592 0.04591087 -0.034033936 -0.009256777 -0.019740272 0.04077486
0.023207786 0.0032996093 0.035787456 0.014650566 0.05962979 0.009198494 0.06941395 -0.065698974
0.041066714 0.018609794 -0.057330884 0.035398275 0.06378549 0.017502528 0.012009708 -0.024097698
0.04402253 0.042743687 0.049994968 -0.015524038 -0.018528532 -0.07044157 0.023498408 0.051981155
0.024903571 -0.023621446 0.0050587696 0.04872676 -0.0730094 -0.0089954855 -0.02257237 -0.064468786
-0.010245217 0.0743311 -0.055683494 0.043232277 -0.013945308 -0.028239653 -0.010084613 0.01607036
-0.068755805 -0.04343727 -0.061794277 0.060248304 -0.022301016 -0.020954804 -0.025470207 -0.035804264
0.016551334 -0.0021552492 0.004036145 -0.041426152 0.07537199 0.022535376 -0.05225175 -0.05087504
0.06834381 0.01673065 -0.048443798 -0.04066687 -0.06728091 -0.07318694 0.0017212838 0.041012943
-0.022249661 -0.056924667 0.052103993 -0.04774502 0.024187732 -0.053990338 0.044933587 -0.023257533
0.06079554 -0.009397414 -0.052455086 -0.0444537 -0.034861337 0.056095105 0.00767572 0.018766943

DNN_Layer.bias f4 [100]
00000000: 0045 3fbc d997 663d cc59 72bd 1dcf 863d
00000010: 83e5 353d 1a66 93bd 26bf 553d 7cba 4e3d
00000020: ffb0 b4bc 7bda 743c c959 443d 34f9 d3bc
00000030: 5d60 d73c c173 2e3d b410 bfbb bfba 623d
00000040: 9b30 eabc 2d33 d3ba e3dd 123d 7385 41bd
00000050: 7c8b c2bc 9b8d 113b 6f23 4fbd 9175 e0bc
00000060: 0106 303d ec52 973d 489d 603d 9a4c 453d
00000070: a81a 5c3d 5959 c4bc 6b55 683c e708 2bbd
00000080: 4741 9f3a 6053 1bbc d692 11bd 02f9 483d
00000090: 3f04 3fbb e821 70bd c09f ee3c 6a92 853d
000000a0: 7c0e 3cbd 9c3e 83bc 7c81 e03c 75ac b13c
000000b0: b2f9 79bd 9f0c 0cbd 7738 35bd 06de a03c
000000c0: f552 04bc 4c83 8a3d dd69 543c e602 b9bb
000000d0: 816e 993d 3a21 713d 179e 32bd d5c3 253d
000000e0: b721 963c 6b07 beba 43db 83bd 0103 f5bc
000000f0: fea1 e5bc 1c65 7a3d 3665 1f3d 444f 8ebd
00000100: 856e 913d c465 ea3c 8891 0e3d b7eb 8a3d
00000110: 2c2a 683d 759f 1a3d 62eb 79bb 0549 913a
00000120: 8eca 40bd f284 3cbd 03bd 92bd 9b90 233c
00000130: cee3 e33b 0db4 d53c 4f0c 8c3d 2cf4 153d
00000140: f807 58ba 282f 45bc d9ab 493d 3a06 e83b
00000150: 7f6e 0abd 006a 193c 56a6 0c3d 95cd 353d
00000160: 67f6 25bd 2f70 28bd 71ec 363d b7a2 36bc
00000170: 7660 823d 93bc 9b3c 4fa6 9d3c eac1 8ebd
00000180: 233d bd3c 901f 373d 72e6 2b3d 1d88 97bc
-0.011674166 0.056297157 -0.05916767 0.065824725 0.044408333 -0.07197209 0.052184246 0.050470814
-0.022057055 0.014944668 0.04793719 -0.025875665 0.026291067 0.04259086 -0.0058308486 0.055353876
-0.02858763 -0.0016113274 0.03585614 -0.047246408 -0.023748152 0.0022209648 -0.0505709 -0.02739981
0.042974476 0.07388863 0.054837495 0.048168756 0.05373636 -0.023968386 0.0141805215 -0.041756537
0.0012150191 -0.009480327 -0.035540424 0.049065597 -0.0029146818 -0.058626086 0.02912891 0.06522067
-0.04591225 -0.016021065 0.027405493 0.02168868 -0.061029144 -0.034191724 -0.044243302 0.019637119
-0.008076419 0.06763324 0.012964693 -0.0056460975 0.0749178 0.058869578 -0.043607797 0.040469963
0.018326623 -0.001449806 -0.06438305 -0.029908659 -0.028031345 0.06113158 0.03891488 -0.069487125
0.07101158 0.028612979 0.03480676 0.0678324 0.056680843 0.037749726 -0.0038134684 0.0011084384
-0.04706817 -0.046025224 -0.071649574 0.009983207 0.0069546467 0.026086831 0.06838285 0.036609814
-0.00082409335 -0.012035169 0.049236152 0.0070808204 -0.033796784 0.009363651 0.034338318 0.04438551
-0.04051819 -0.04112261 0.04465908 -0.011147193 0.06366055 0.019010818 0.019244341 -0.0697058
0.023100441 0.044707835 0.041967817 -0.018497521

DNN_Layer2.weight f4 [1, 100]
00000000: 8ce5 173c 8ae0 b33d 01f0 8fbe 1308 063d
00000010: 2897 c63d 8551 78bc 052b 21be 7745 9c3e
00000020: 3803 cebd 4b71 1a3e cd74 1dbe 882f 263d
00000030: 08d8 94bd 313c 60be 616c 583e 8a69 c43d
00000040: 0f57 5a3e cd8f 293e ba3c 763e d02c 9e3d
00000050: 4250 25be a35f 133e effe c83d 0b81 47be
00000060: 6390 8dbd 29f2 53be 62bf 9e3e 2012 adbd
00000070: 246f 5cbc 7c0d 87bd 875c 863d 2c06 48be
00000080: 502d 213e 484e 4fbe 505e b9bd 6545 6a3e
00000090: c8d7 263e fc86 00be f4db 343e 7444 223e
000000a0: 7f7c 20be de80 983d 857b a3bd 3a56 5cbd
000000b0: eb4e 0f3e 029d 083e fdf1 10be 6e0c cdbd
000000c0: 55ed 2abe fecb 883b 41dc 9dbe 65e2 1fbe
000000d0: cc8d c5bd ccc5 d93d ad0c bebe 9a8a 563d
000000e0: 5661 723d 244a b9bd 2693 24bd 9921 15be
000000f0: e865 3b3e a9d9 023e 45ee 99bd 2a9f c93d
00000100: 6a78 99bd 2e31 ba3d 2c83 64be 5828 eb3d
00000110: 3b42 f4bd f82c b03a 0056 17be fbb9 77bd
00000120: 3a72 6bbd 5f69 8cbb 8cd5 a93e 9e50 7bbe
00000130: b790 b3bd 484e 08bd 245a 8bbb d744 afbd
00000140: c071 633e 006c 9f3e 5364 30be 4f48 f03d
00000150: 19df 84be f312 dd3d 15c7 a73d 72fa 273e
00000160: 9229 2e3e 8316 f2bd 7af7 033d 3415 edbc
00000170: f495 683e 8df3 6abe 8f30 4fbd fe49 983e
00000180: 5206 db3d e074 6fbe 533c 54be c56a debd
0.009271037 0.08783062 -0.28112796 0.032722544 0.096967995 -0.0151561545 -0.15739067 0.30521747
-0.10059208 0.1508228 -0.15376587 0.040572673 -0.07267767 -0.21897961 0.21135093 0.095904425
0.21322273 0.16558762 0.24046603 0.07723391 -0.16143897 0.14391951 0.0981425 -0.1948282
-0.06912305 -0.20697846 0.31005388 -0.08450723 -0.013454232 -0.06594369 0.06560617 -0.19533604
0.15739942 -0.20244706 -0.09051192 0.22878034 0.16293252 -0.12551492 0.1766203 0.15846425
-0.15672491 0.074464545 -0.07982544 -0.05379317 0.13994949 0.13341144 -0.14154811 -0.100121364
-0.16692097 0.0041747084 -0.30832103 -0.15613706 -0.09646186 0.1063343 -0.37119046 0.052378275
0.059174858 -0.09047344 -0.040179394 -0.14563598 0.18300593 0.12778343 -0.075161494 0.09844811
-0.0749367 0.090914115 -0.22315663 0.11482304 -0.11926695 0.0013441136 -0.147789 -0.0604801
-0.05748198 -0.004285022 0.33170736 -0.24542472 -0.087678365 -0.03327778 -0.004252689 -0.08558052
0.22211361 0.31137085 -0.1722577 0.11732542 -0.2595146 0.1079463 0.08192269 0.16404131
0.17008045 -0.118207 0.032218434 -0.028940775 0.22713453 -0.2294447 -0.05058342 0.29743952
0.10694565 -0.23384428 -0.20726137 -0.108602084
