experiments/experiment0_no_normalization/trained_model_experiment0_no_normalization_v2.pth (torch, 733912 bytes, 7 tensors)

Stock_price_layer.weight_ih_l0 f4 [800, 1]
0	0x3d21052b	0.03931157
1	0xbf3406fa	-0.70323145
2	0x3e4dbf06	0.20092401
3	0x3eae9f7a	0.34106046
4	0xbe1bfb68	-0.15232623
5	0xbccf25eb	-0.025286635
6	0x3d7b673f	0.06137776
7	0x3e85ff37	0.26171276
8	0x421a7803	38.6172
9	0x3f15107b	0.5822827
10	0xc085afa1	-4.177689
11	0x3eec9bb9	0.46212557
12	0xbfed2561	-1.8527032
13	0x3de54f49	0.11196763
14	0xc05faaf2	-3.4948087
15	0x3ef433b6	0.47695702
16	0xc045bbc4	-3.0895853
17	0x3f4a9b7c	0.791435
18	0xbf6cc68b	-0.9249045
19	0x40f14adb	7.5403876
20	0x3f0457e3	0.51696604
21	0x3ec07840	0.37591743
22	0x3d3505f2	0.044195123
23	0x3e9630cc	0.29334104
24	0x3db108ce	0.086442575
25	0x3efb6083	0.4909707
26	0x3de3bc50	0.11119902
27	0x3e17bcf4	0.14818174
28	0x3b52b03f	0.0032148508
29	0x3fadbecd	1.3573853
30	0x425b6974	54.85298
31	0x3efee01f	0.49780366
32	0x3eea3ee2	0.457511
33	0x41042ecd	8.261426
34	0xc0a608f3	-5.1885924
35	0x3d79c1a9	0.060975704
36	0x3fc9db61	1.5770074
37	0x3f023425	0.50860816
38	0x3f9989f7	1.1995229
39	0xbf4719e8	-0.77773905
40	0x40d90e71	6.783013
41	0x3f041a3c	0.5160253
42	0x3d0932ef	0.03349584
43	0xbfaece3f	-1.3656691
44	0xc079f8e4	-3.905816
45	0x3f56cbc7	0.8390469
46	0xc0fc24c0	-7.879486
47	0x3e378c33	0.17924576
48	0x401e8b31	2.4772456
49	0x3e5049ab	0.20340602
50	0x3d91238e	0.0708686
51	0x3caa4f91	0.020789893
52	0x3eb4a09c	0.35278785
53	0x3eeacda6	0.45860022
54	0xc0ee3b2d	-7.4447236
55	0x3e372154	0.17883807
56	0xbf84bee5	-1.0370756
57	0x3d0a7ea6	0.033812188
58	0x3c956434	0.018236257
59	0x3fceb875	1.6150042
60	0x3e205d62	0.15660623
61	0x3ecb7f8c	0.39745748
62	0xbfb5ce9f	-1.4203681
63	0x3cbc82bb	0.023011556
64	0x3ce55389	0.027993934
65	0x3c3b911b	0.01144817
66	0x3f1dba91	0.616128
67	0xbdd9bcee	-0.106317386
68	0x3eb86959	0.36017874
69	0x3e8fac30	0.28061056
70	0x3d88b1c8	0.06674534
71	0x3f9f81cf	1.246149
72	0xc19781d3	-18.93839
73	0xbfd62bb9	-1.6732093
74	0xc02de9d2	-2.7173963
75	0x3eda39bf	0.42622182
76	0xbf997d90	-1.1991444
77	0x3e3e5f7b	0.1859111
78	0xbd155e4d	-0.036466885
79	0xbf86c31d	-1.0528294
80	0xbf32efec	-0.6989734
81	0x3d308cb5	0.04310294
82	0x3e5e7f18	0.2172817
83	0x40c9ad8e	6.302436
84	0x3d7cc891	0.061714713
85	0x3e3fb230	0.18720317
86	0x3fa8e767	1.3195618
87	0xc055c59f	-3.3401868
88	0x3dd3ac8b	0.10335644
89	0x3ee5c680	0.44878006
90	0x3f4be80d	0.79650956
91	0xbfe86dc2	-1.8158495
92	0x3d260622	0.040533192
93	0xbf96a91f	-1.1770362
94	0xc192ac24	-18.334053
95	0x3d519ce4	0.051175013
96	0x3e4d7a7b	0.20066254
97	0xbfede5ea	-1.8585789
98	0x3d5e30ae	0.054245643
99	0x408507df	4.157211
100	0x40fa7a31	7.827416
101	0x3c83a0f2	0.016067956
102	0xc13afd3b	-11.686824
103	0x3ef646ea	0.48100978
104	0x3dad8fad	0.084746696
105	0x3d8d4611	0.0689813
106	0x3efb9f62	0.49145037
107	0x40c720e9	6.2227674
108	0xbfd97a4d	-1.6990448
109	0x3d5467d3	0.051856827
110	0xc00e0d8d	-2.219577
111	0x3e7b1e9d	0.24523397
112	0x3d44a419	0.04800806
113	0x3e9b6490	0.3035016
114	0xbe40e307	-0.18836604
115	0x3df0fb47	0.11766677
116	0x3c92a6f3	0.017901873
117	0xbfb71b97	-1.4305295
118	0xc0e5819b	-7.172071
119	0xbf71cd42	-0.94453824
120	0x40bf5e84	5.9802876
121	0xc0e2bad1	-7.0853047
122	0x43058a55	133.54036
123	0x3f52b391	0.82305247
124	0x3d586116	0.052826963
125	0x3dcef05e	0.1010444
126	0x3f24bb6f	0.643485
127	0x3dcec318	0.10095805
128	0x3d6539e4	0.055963412
129	0x3f8a8dc7	1.0824517
130	0x3ea39f06	0.31957263
131	0x3e1e4daa	0.15459314
132	0x3d936ffb	0.07199093
133	0x3de2cf1d	0.1107466
134	0xbf4be755	-0.7964986
135	0x40aed377	5.4633136
136	0x3da506fb	0.08057972
137	0x3f9ea91d	1.2395359
138	0x3f03822d	0.5137051
139	0x42021f09	32.530308
140	0x3d3bc4c9	0.045841966
141	0xc017e73f	-2.3734891
142	0x3f02410e	0.50880516
143	0xba1be90f	-0.0005947509
144	0x3f302c61	0.68817717
145	0xc054d971	-3.3257716
146	0x3f3f3bed	0.74700814
147	0xbe824743	-0.25444993
148	0x3e21576c	0.15756005
149	0xc1978026	-18.937572
150	0xbfd619d8	-1.6726637
151	0xc01b63eb	-2.4279735
152	0xbed52170	-0.41627073
153	0x3ee9a640	0.4563465
154	0x3e1371ea	0.14398924
155	0xbfe417ab	-1.7819723
156	0xc0e21394	-7.06489
157	0x3f593a97	0.84855026
158	0x40297338	2.6476574
159	0x3fab307f	1.3374175
160	0x3f2a88de	0.6661509
161	0x3e20b756	0.15694937
162	0x3f073950	0.52821827
163	0x3e82de38	0.25560164
164	0x3fbdee7e	1.4838407
165	0x3e2d485f	0.16922139
166	0xc01676c8	-2.3509998
167	0x3ef9d9a2	0.48798853
168	0xc10c8050	-8.781326
169	0x3f0c4334	0.54790044
170	0x3c5ec116	0.01359584
171	0xbbc3a7c0	-0.005970925
172	0x3dbcbe3c	0.09215972
173	0x3dc0c962	0.09413411
174	0x41eb627f	29.423094
175	0xbf903a1f	-1.1267737
176	0x3e93fbc1	0.2890301
177	0x3e8e26da	0.27764016
178	0xbf818ded	-1.0121437
179	0x3d995642	0.074871555
180	0x3df3aecf	0.118985765
181	0xc017cba5	-2.3718045
182	0xbe58a542	-0.21156791
183	0x3f03f18d	0.5154045
184	0xc066df71	-3.6073878
185	0xbfa51e09	-1.2899791
186	0x3e21ef46	0.15813932
187	0x3d783af6	0.060603105
188	0xbfa8e673	-1.3195328
189	0x3df27441	0.1183858
190	0x3ef96582	0.48710257
191	0x3d534cc9	0.0515869
192	0x3d704d57	0.058667507
193	0x3f831bb5	1.024283
194	0x3f5c6a28	0.8609948
195	0xc00f7e8d	-2.242099
196	0x3ef09b83	0.46993646
197	0x3f918d35	1.1371218
198	0x3dda1540	0.10648584
199	0x3ef6d4e9	0.48209313
200	0x3d851c0e	0.06499492
201	0xbf307179	-0.68923146
202	0x3d9755ef	0.073894374
203	0x3de41261	0.11136318
204	0xbf9912e9	-1.1958896
205	0x3d1671f4	0.036729768
206	0x3d2c9789	0.042136703
207	0x3e89c2e5	0.26906505
208	0x4182a457	16.330244
209	0x3f191635	0.5979951
210	0xbb81e0b4	-0.0039635543
211	0x3ec37a3c	0.38179195
212	0xc00fc4d2	-2.246388
213	0x3e8144ef	0.25247905
214	0xbe03c007	-0.12866221
215	0x3ecca9be	0.39973253
216	0x3e2acad2	0.16678932
217	0xbf5e8211	-0.86917216
218	0xbef85a9d	-0.48506632
219	0x3ed4dbc5	0.4157392
220	0x3fdced6f	1.7259959
221	0x3e0d92f3	0.13825588
222	0x3d8d1243	0.06888249
223	0x3e007712	0.12545422
224	0xbc65d892	-0.014028685
225	0x407bf3f3	3.9367645
226	0x3ca27bc8	0.019834414
227	0x3dd38d78	0.103297174
228	0x3d6cbba4	0.057796136
229	0xc093b70d	-4.616095
230	0xc0111d40	-2.2674103
231	0x3ebfc6f1	0.37456468
232	0x3eb659e3	0.35615453
233	0xbfc9379e	-1.5720098
234	0x3de5691e	0.1120169
235	0x3d22a110	0.039704382
236	0xbf292e3c	-0.66086173
237	0x4102db2a	8.178507
238	0x40270a14	2.6099901
239	0xbf3f4d4f	-0.7472734
240	0xc05dfcbd	-3.468551
241	0x3ed127d8	0.4085071
242	0x3cf375d5	0.029719273
243	0xbf2b6c85	-0.6696246
244	0xbef450f4	-0.47718012
245	0x3fe5e45e	1.7960317
246	0xbf253e85	-0.6454852
247	0xbf87b6a0	-1.0602608
248	0x40f813fb	7.752439
249	0x3da857cd	0.08219872
250	0x3d5f96fe	0.054587357
251	0x3d6fb0f5	0.05851837
252	0x3ea16db7	0.31529018
253	0xbe1a41d8	-0.1506418
254	0xbe95ce6e	-0.29259056
255	0x3e162543	0.14662652

Stock_price_layer.weight_hh_l0 f4 [800, 200]
0	0xbd077390	-0.033069193
1	0x3c3e2b0a	0.011606941
2	0x3d77d715	0.060507853
3	0xba70398b	-0.0009163848
4	0x3cd28398	0.025697514
5	0x3b303fb7	0.0026893446
6	0xbb334ae8	-0.002735788
7	0xbc00e88f	-0.007867946
8	0x3cfabea5	0.030608485
9	0xbd49e010	-0.04928595
10	0x3d8846fb	0.066541635
11	0xbd873bf8	-0.06603235
12	0xbc9323a8	-0.017961338
13	0xbcd20d07	-0.025640978
14	0x3d260f89	0.04054216
15	0xbd8974da	-0.06711741
16	0x3c04bdcd	0.008101893
17	0x3bda8fef	0.0066699903
18	0x3ce2e22f	0.027695743
19	0xba4f98e2	-0.00079192047
20	0xbba6493e	-0.005074649
21	0x3d26ae48	0.04069355
22	0x3d8c72f4	0.06857863
23	0x3d613544	0.05498244
24	0x3d00bd10	0.031430304
25	0xbccced55	-0.025015512
26	0x3c9be74c	0.01903119
27	0xbd8d4fd5	-0.068999924
28	0x3b211bf0	0.0024583302
29	0x3d570091	0.052490775
30	0x3b7d6738	0.003866626
31	0x3d8b4445	0.06800131
32	0x3c2dfba1	0.010619075
33	0x3c90354a	0.017603535
34	0x3ce0195e	0.027355846
35	0x3d2f0572	0.042729802
36	0x3a0d53d5	0.0005391215
37	0x3d371a93	0.044703078
38	0x3cba6977	0.022755368
39	0x3c044ada	0.008074487
40	0xbcc48cc3	-0.023992902
41	0x3d330e03	0.043714534
42	0x3d35a2c7	0.04434469
43	0x3b0177e6	0.0019755303
44	0xbce964ac	-0.028490387
45	0xbcb9e983	-0.022694355
46	0xbd4a1747	-0.049338605
47	0xbd110c68	-0.035412222
48	0xbd127697	-0.035757627
49	0x3cde9a2a	0.02717312
50	0xbb9e844f	-0.0048375498
51	0x3c4964cd	0.012292099
52	0x3d5ba5b8	0.05362484
53	0xbcf670fa	-0.030083168
54	0x3d7e7e02	0.06213189
55	0x3c6c7155	0.014431317
56	0xbc340490	-0.010987416
57	0x3d16f138	0.036851138
58	0x3a9fc1d8	0.0012188507
59	0x3d66b13c	0.056321368
60	0xbd88284d	-0.06648312
61	0x3d0897a7	0.033347752
62	0xbd3e23cb	-0.046420854
63	0xbd88adfc	-0.0667381
64	0x3ca15c8c	0.01969745
65	0xbd1797d9	-0.037010048
66	0x3d396ada	0.045267917
67	0x3d592efa	0.053023316
68	0x3cd8710c	0.026421092
69	0x3d1dbba8	0.03850904
70	0xbca48c98	-0.020086572
71	0xbca5458e	-0.020174768
72	0x3c87800e	0.016540553
73	0x3d307568	0.043080717
74	0x3bad0dfd	0.0052812085
75	0xbd59c11d	-0.053162683
76	0x3d6b850b	0.057499927
77	0xbd5662ee	-0.05234044
78	0xbc4df1fa	-0.012569899
79	0xbd280408	-0.04101947
80	0xbd35a4da	-0.044346668
81	0xbd3a6804	-0.045509353
82	0x3d862d7e	0.06551646
83	0xbd8e36a3	-0.06944015
84	0xbca3b247	-0.01998247
85	0xbd4c96cd	-0.049948502
86	0x3d7542a5	0.05987801
87	0x3d6b8078	0.057495564
88	0x3d895935	0.06706468
89	0xbce2bae3	-0.027677005
90	0x3bf06ccb	0.007337188
91	0xbd65ab2d	-0.05607145
92	0x3d501abb	0.050806742
93	0xbd47dee7	-0.04879656
94	0xbab52459	-0.0013820037
95	0xb91dc84e	-0.00015047306
96	0x3d6ef53a	0.058339335
97	0x3c901967	0.017590238
98	0x3d3d9267	0.0462822
99	0xbcb20ab3	-0.021733617
100	0x3d3dbcf0	0.046322763
101	0xbc9a4bee	-0.018835034
102	0x3d0418e9	0.03225032
103	0x3d639950	0.055566132
104	0xbd55f10d	-0.052231837
105	0xbbd1c7ec	-0.0064020064
106	0x3cd3b6b3	0.025843954
107	0x3d8af7b1	0.06785525
108	0x3d18eb58	0.037333816
109	0xbd15882e	-0.036506824
110	0xbd8eaa4d	-0.06966076
111	0xbd73931e	-0.059466474
112	0xbb97c2bf	-0.00463137
113	0xbd17bfa2	-0.03704799
114	0x3d76a311	0.060214106
115	0x3cb2b735	0.021815876
116	0x3d665fa8	0.05624357
117	0xbd493f18	-0.049132437
118	0x3d09d6ab	0.03365199
119	0xbd03b8fa	-0.03215883
120	0x3d1d1556	0.038350426
121	0x3a73ccbc	0.0009300222
122	0xbd6530c6	-0.055954717
123	0x3d5e47fe	0.054267876
124	0x3bf52299	0.007480931
125	0x3bca175e	0.0061673364
126	0x3d8c8758	0.06861752
127	0x3d02af4c	0.031905457
128	0x3d70ecec	0.058819696
129	0x3d191a13	0.037378382
130	0x3d3eada4	0.046552315
131	0x3d582b9f	0.052775975
132	0x3d462af6	0.048380814
133	0x3d5c273c	0.053748354
134	0xbcc3e478	-0.023912653
135	0xbd619356	-0.05507215
136	0xbd53a1a8	-0.05166784
137	0x3a5c32c1	0.0008399897
138	0x3c4ba357	0.01242908
139	0x3d0d1297	0.034441557
140	0x39ae4a8a	0.00033243402
141	0x3b6a5877	0.0035758296
142	0x3d53fbef	0.051753934
143	0x3cbfb5ca	0.023402113
144	0x3c7fa560	0.015603393
145	0xbd4ec28c	-0.050478503
146	0x3d523596	0.051320635
147	0x3c3abc56	0.011397442
148	0x3d2fc667	0.04291382
149	0xbcfc3dab	-0.030791124
150	0xbd504de8	-0.050855547
151	0xbc9ac611	-0.018893274
152	0x3ce18198	0.027527615
153	0xbcf341f4	-0.029694535
154	0xbd52c32c	-0.05145566
155	0x3cc532a5	0.024072
156	0xbd38a362	-0.04507769
157	0xbd683d56	-0.05669912
158	0xbcf1272a	-0.02943762
159	0xbd7e1615	-0.062032778
160	0x3b91f86c	0.004454663
161	0xbcee0df0	-0.02905938
162	0xbbb7ad34	-0.005605364
163	0x3d6e0362	0.058108695
164	0x3d10e5d7	0.035375442
165	0x3d347739	0.044059012
166	0xbc26ad99	-0.010173225
167	0x3d7b898e	0.06141048
168	0x3c1d290d	0.009592307
169	0xbd32ecf1	-0.043682996
170	0xbc4c6913	-0.0124762235
171	0xbd5cfc6a	-0.05395166
172	0xbc0ebe8c	-0.008712422
173	0xbd1d4c64	-0.03840293
174	0xbc5ea9f0	-0.013590321
175	0xbd4e2ec4	-0.050337568
176	0x3d03ab3b	0.03214572
177	0xbd2e3539	-0.042531226
178	0x3d77e0da	0.06051717
179	0x3d6f02d3	0.058352303
180	0x3c48f804	0.012266163
181	0xbc5deb9a	-0.013544941
182	0x3d4414e3	0.04787148
183	0x3c10e64f	0.008843972
184	0xbc3636d6	-0.011121472
185	0xbd177a38	-0.03698179
186	0xbcead0a0	-0.028663933
187	0x3d5d0f29	0.053969536
188	0xbc19a0ee	-0.0093767475
189	0xbd6e4f26	-0.05818095
190	0x3d8ee56d	0.06977353
191	0xbc21b83b	-0.009870584
192	0xbd19dc39	-0.037563536
193	0xbcc10406	-0.023561489
194	0xbc5b83a1	-0.013398082
195	0x3d5fd44c	0.05464582
196	0x3d3d2e70	0.046186864
197	0x3d0c3177	0.03422686
198	0x3d46eed7	0.04856762
199	0x3cde4af4	0.02713535
200	0x39a50093	0.0003147168
201	0x3d2032e0	0.03911102
202	0xbd246c63	-0.040142428
203	0xbcc3bbd6	-0.023893278
204	0x3d789276	0.06068655
205	0xbd182787	-0.03714707
206	0x3b62393e	0.0034518982
207	0xbc8d247e	-0.017229315
208	0x3dadc0e3	0.08484056
209	0x3c113082	0.008861663
210	0x3d4f576c	0.05062048
211	0x3d236d9f	0.039899465
212	0x3d0d1662	0.034445174
213	0xbc726324	-0.014794145
214	0x3c787a6f	0.015165909
215	0x3bf9692f	0.007611416
216	0x3cdb6232	0.026780222
217	0x3d2ea2e9	0.042635832
218	0xbc919696	-0.017772
219	0x3c377680	0.011197686
220	0x3bf38d0d	0.007432586
221	0x3d6af2c2	0.05736042
222	0xbd1a1f35	-0.037627418
223	0x3d8277bf	0.06370496
224	0x3d075830	0.033043087
225	0x3d99ff93	0.0751945
226	0xbd04c8e0	-0.03241813
227	0x3c914df8	0.017737374
228	0xbc99b8c8	-0.018764868
229	0xbb94f320	-0.0045455843
230	0xbbd6095f	-0.006531879
231	0x3c9a0967	0.018803312
232	0x3dbd6b75	0.092490114
233	0x3d5b8e00	0.05360222
234	0x3d03cf99	0.032180402
235	0x3d003b21	0.03130639
236	0xbca01c68	-0.019544795
237	0x3dbe1514	0.09281364
238	0xbd057dfa	-0.032590844
239	0x3d8a376b	0.067488514
240	0x3d8c22e3	0.068425916
241	0xbc510526	-0.012757575
242	0xbd5cf658	-0.05394587
243	0xbc62e76e	-0.013849122
244	0x3d27a2ce	0.040926747
245	0x3c888ea4	0.016669579
246	0xbb5c9aab	-0.0033661525
247	0x3c035d9a	0.008017922
248	0xbc99feef	-0.01879832
249	0x3ba88ea4	0.005143957
250	0x3bde1679	0.0067775813
251	0xbd507df5	-0.050901372
252	0xbd8a8486	-0.06763558
253	0x3cbfcfdc	0.023414545
254	0xba08beab	-0.00052164
255	0x3d8a74d6	0.06760566

Stock_price_layer.bias_ih_l0 f4 [800]
0	0xbc96115c	-0.018318824
1	0xbde23312	-0.11044897
2	0x3d90229b	0.070378505
3	0x3cfa89ee	0.030583348
4	0xbbfa721b	-0.007642997
5	0x3d85a7c2	0.06526138
6	0x3d705cbd	0.058682192
7	0x3d4aea71	0.049539987
8	0x3f5a119c	0.8518312
9	0x3d797e29	0.06091133
10	0x3bcae257	0.0061915326
11	0xbd1acfa1	-0.037795667
12	0xbd5b2545	-0.05350234
13	0xbd03ebc8	-0.03220728
14	0x3d9c76e9	0.07639868
15	0xbc5d9b3e	-0.013525782
16	0x3dbaa9ad	0.09114394
17	0xbd33ee44	-0.0439284
18	0x3bbe10be	0.0058003357
19	0x3e584856	0.21121344
20	0xbbe0fd47	-0.0068661305
21	0x3d006f2a	0.031356014
22	0x3cd9c800	0.026584625
23	0xbd670545	-0.05640151
24	0x3d5edfaf	0.05441254
25	0x3d835e81	0.064145096
26	0xbd703023	-0.058639657
27	0x3d384310	0.04498583
28	0x3c3697a5	0.011144553
29	0xbc23a001	-0.009986878
30	0x3dcab951	0.098986275
31	0x3d20a470	0.03921932
32	0x3c36243b	0.011117036
33	0x3e0bd6d8	0.13656175
34	0x3b0684f3	0.0020526021
35	0xbcf8cd55	-0.030371347
36	0x3a0b201a	0.00053072127
37	0x3cf85194	0.030312337
38	0xbbfb7c0a	-0.0076746987
39	0xbcb7f334	-0.022454835
40	0xbd99e8d0	-0.075151086
41	0xbb21251a	-0.0024588765
42	0xbd4631f1	-0.04838747
43	0x3c4b8cf8	0.012423746
44	0xbbaeb129	-0.0053311777
45	0xbcaad2b0	-0.020852417
46	0x3d1ef8ef	0.03881162
47	0x3d25df3b	0.040496092
48	0x3de56529	0.112009354
49	0x3c788a10	0.015169635
50	0x3d69efcf	0.057113465
51	0xbc163d44	-0.00916988
52	0x3d66eb90	0.056376994
53	0x3d855bfb	0.065116845
54	0x3d1aa178	0.037751645
55	0xbd689e4a	-0.05679158
56	0xbda519fe	-0.08061598
57	0xbc9a6ee9	-0.018851714
58	0xbcbb7f58	-0.02288787
59	0x3cbe4752	0.023227368
60	0x3d334ed5	0.043776352
61	0x3d5575c9	0.05211428
62	0x3c266cce	0.010157777
63	0x3d258917	0.040413942
64	0xbc8e7c09	-0.017393129
65	0xbd7e5ec0	-0.06210208
66	0xbc8aa754	-0.016925491
67	0xbd143866	-0.0361866
68	0x3d26c527	0.040715363
69	0x3d1a11c5	0.037614603
70	0xbd801028	-0.062530816
71	0x3b4e0615	0.003143673
72	0xbecb4284	-0.39699185
73	0xbdcbc6b4	-0.09950009
74	0xbe000468	-0.12501681
75	0x3d099c1b	0.03359614
76	0xbd216bbe	-0.03940939
77	0xbb0de1e4	-0.0021649534
78	0x3d14bd18	0.036313146
79	0x3d093fed	0.03350823
80	0xbccaf53e	-0.024775144
81	0x3d202d87	0.03910592
82	0xbc9f742a	-0.019464571
83	0x3d68e172	0.056855626
84	0x3d626c77	0.05527922
85	0x3c2012bc	0.009770092
86	0xbc51f8df	-0.012815683
87	0xbdba0a81	-0.09084035
88	0xbd010f5d	-0.031508792
89	0xbd4ac7c0	-0.049506903
90	0xbb07f406	-0.0020744815
91	0xbc65e71c	-0.014032152
92	0x3d238f42	0.039931543
93	0xbd2dbfd2	-0.042419262
94	0xbf372642	-0.7154275
95	0x3cd7d970	0.0263488
96	0x3d725e87	0.05917218
97	0x3d393d3a	0.045224406
98	0x3d7fbdbb	0.0624368
99	0x3e15bc9c	0.1462273
100	0x3ddc1462	0.10746075
101	0xbc43f11f	-0.011959343
102	0xbe5e1b36	-0.21690068
103	0x3caf7761	0.021419229
104	0x3c8f5a45	0.017499099
105	0xbcf6ac9c	-0.030111603
106	0x3d9904d4	0.07471624
107	0xbb6f1a7b	-0.003648429
108	0xbcf3455d	-0.02969616
109	0x3d4462c8	0.047945768
110	0xbce4b906	-0.027920257
111	0xbcf962f4	-0.030442692
112	0x3d84790b	0.064683996
113	0xbd20ad9f	-0.039228078
114	0xbd57a0c9	-0.05264357
115	0x3ca72ed0	0.020408064
116	0x3ad690cd	0.0016370058
117	0xba5c045d	-0.0008392984
118	0x3d3d1d9c	0.046170816
119	0x3cd5f804	0.02611924
120	0x3e8a76f5	0.27043882
121	0x3cee768d	0.029109264
122	0x3e2f4e0e	0.17119619
123	0x3da9e806	0.08296208
124	0x3d29d06b	0.04145853
125	0xbcb80cd0	-0.022467047
126	0x3d0fbfcd	0.035095025
127	0xbd3fce95	-0.04682787
128	0xbd492767	-0.049109843
129	0x3b28918d	0.002572152
130	0x3d3a5e47	0.045500066
131	0x3d476606	0.04868128
132	0x3cc22f74	0.023704268
133	0x3acbe8cf	0.0015557053
134	0xbbf82603	-0.0075728907
135	0xbd533351	-0.05156261
136	0xbb948fb8	-0.004533734
137	0x3c0f1325	0.008732592
138	0x3d2d3f93	0.042296957
139	0x3e851fb8	0.26000762
140	0xbd45f096	-0.048325144
141	0x3c8a880c	0.016910575
142	0x3da751ba	0.08169885
143	0x3d4e2775	0.050330598
144	0xbd05ade4	-0.03263654
145	0xbd2e9681	-0.042624
146	0x3dd6a6b7	0.10481017
147	0x3d4da6e0	0.050207973
148	0x3d0061f3	0.03134341
149	0xbe48b783	-0.19601254
150	0xbc2bd099	-0.010486745
151	0x3c000ec6	0.007816022
152	0xbd3aa11b	-0.0455638
153	0x3da7f564	0.082011014
154	0xbce43d2d	-0.027861202
155	0x3ba4040a	0.0050053643
156	0xbe0301cf	-0.12793659
157	0xbd06c5a7	-0.03290334
158	0x3db93ac6	0.09044413
159	0x3ddd0aea	0.10793097
160	0x3d25e51b	0.040501695
161	0x3d3dda13	0.04635055
162	0x3c8e9e7e	0.01740956
163	0x3d51d525	0.05122866
164	0x3da0fd7f	0.078608505
165	0xbd35dbf4	-0.044399217
166	0xbd45205a	-0.048126556
167	0x3c96681a	0.018360186
168	0xbedca887	-0.43097326
169	0xbce00ecf	-0.027350811
170	0x3d0a15de	0.03371226
171	0xbd1db768	-0.038504988
172	0x3d0c8409	0.034305606
173	0xbc867b45	-0.016416201
174	0x3e346b30	0.17619014
175	0xbd94f8eb	-0.0727404
176	0x3d2dc2db	0.042422157
177	0xbcfbb9ce	-0.030728247
178	0x3d3a3133	0.045457076
179	0xbce4c02b	-0.027923664
180	0x3ae00cbf	0.0017093642
181	0x3d7dba17	0.061945047
182	0xbba93dbb	-0.0051648295
183	0x3d0108da	0.031502582
184	0x3dabb563	0.08384206
185	0xbce4a1f4	-0.027909257
186	0x3d8c1ae7	0.06841069
187	0x3d594c49	0.053051267
188	0x3c4bf3a4	0.012448225
189	0xbd8c8669	-0.06861574
190	0xbd5405cc	-0.05176334
191	0x3d4b5f33	0.049651336
192	0x3c5b8793	0.013399023
193	0xbd36dcd4	-0.04464419
194	0xbd3af0ae	-0.045639686
195	0xbdc7ea42	-0.09761478
196	0xbcf0bc57	-0.029386682
197	0xbcf2ee35	-0.029654602
198	0x3d248665	0.04016723
199	0x3cf423da	0.029802252
200	0x3d08edf8	0.03343007
201	0x3d4894a9	0.0489699
202	0x3cf954c0	0.03043592
203	0xbd850098	-0.06494254
204	0x3c4bb20a	0.012432585
205	0xbd803760	-0.06260562
206	0xbd50f7a8	-0.051017433
207	0x3d0ec237	0.034853186
208	0x3d75e3c6	0.060031675
209	0xbcbf9568	-0.023386672
210	0x3d555e9f	0.05209219
211	0xbd008123	-0.031373154
212	0x3c908147	0.01763977
213	0x3d1a57bb	0.037681323
214	0x3c1ef142	0.009701075
215	0x3ce144ad	0.027498567
216	0xbd6697a8	-0.056296974
217	0x3d3bcc2f	0.04584902
218	0xbd974ede	-0.073880896
219	0x3bf85821	0.007578865
220	0x3d734c48	0.05939892
221	0x3d5740f2	0.05255217
222	0xbd2786af	-0.04089993
223	0xbc3c89af	-0.011507436
224	0x3d8f7882	0.07005407
225	0x3c7a9037	0.015293173
226	0xbd0c9ff1	-0.03433222
227	0xbd5062c3	-0.050875437
228	0x3d377c93	0.044796538
229	0xbb036541	-0.0020049366
230	0xbcc6f770	-0.02428791
231	0x3d34e510	0.044163764
232	0xbbf175f6	-0.0073687984
233	0xbcb1d0b4	-0.021705963
234	0xbd07ad53	-0.03312428
235	0x3d4f4e08	0.050611526
236	0xbdb5cd8a	-0.08877094
237	0x3c9df6ad	0.019282663
238	0x3dae4803	0.08509829
239	0xbd1d79d3	-0.03844626
240	0xbc921d75	-0.017836312
241	0xbd337b20	-0.043818593
242	0x3d13387a	0.035942532
243	0xbd06ff0e	-0.032958083
244	0xbd0d1448	-0.03444317
245	0x3aa3289b	0.0012448014
246	0xbdaa5a1d	-0.08317969
247	0xbe18d987	-0.1492673
248	0x39ace371	0.00032975854
249	0xbc7498ad	-0.014928979
250	0x3d223c59	0.039608333
251	0xb804b5a8	-3.1640433e-05
252	0x3d0153f8	0.03157422
253	0xbcf72df9	-0.030173289
254	0xbcab5a30	-0.020917028
255	0xbd00b14f	-0.031419095

Stock_price_layer.bias_hh_l0 f4 [800]
0	0x3d8d7cf5	0.06908599
1	0xbc42affd	-0.011882779
2	0x3d1d244a	0.038364686
3	0x3d6a9e43	0.057279836
4	0x3d1d0145	0.03833129
5	0xbc53ebf5	-0.0129346745
6	0xbc7d26ab	-0.015451114
7	0xbd1bfef7	-0.03808495
8	0x3f75fa8d	0.96085435
9	0x3bdf3940	0.0068122447
10	0xbcfb8a0c	-0.030705474
11	0x3c5fdf7d	0.013664124
12	0xbd6225bf	-0.05521178
13	0xbc5cfaf0	-0.013487563
14	0x3bf2b6bd	0.007407038
15	0x3c22d51c	0.009938505
16	0x3d3f6a03	0.04673196
17	0x3d6188df	0.05506217
18	0x3cf45426	0.029825281
19	0x3e5d3315	0.21601517
20	0x3d1407f1	0.036140386
21	0x3c2f083d	0.0106831165
22	0xbd41aff1	-0.04728693
23	0x3affb587	0.0019509055
24	0x3b5653ab	0.0032703679
25	0x3d842d02	0.06453897
26	0xbb4ad858	-0.0030951705
27	0x3d0a13a8	0.033710152
28	0xbd8249d3	-0.06361737
29	0xbc34f255	-0.011044105
30	0x3d0feeda	0.035139896
31	0xbce463a2	-0.02787954
32	0x3d529794	0.051414087
33	0x3e4bca4e	0.19901392
34	0x3d67dec1	0.05660892
35	0xbd0b2973	-0.033975076
36	0x3c06a958	0.008219086
37	0xbc4d97a8	-0.012548365
38	0x3d434170	0.047669828
39	0xbd5a2017	-0.05325326
40	0x3c7013cf	0.01465316
41	0x3dad1f7c	0.08453271
42	0xbd8772a1	-0.066136606
43	0x3cb8f5b5	0.0225781
44	0xbd8bd623	-0.06827953
45	0xbadb3dd7	-0.0016726804
46	0xbc949888	-0.018139139
47	0x3cfc1c8f	0.030775337
48	0x3e2ab0ea	0.1666905
49	0xbd3be34e	-0.04587107
50	0xbd82e3f1	-0.063911326
51	0x3d0c7297	0.03428897
52	0x3d1c44e2	0.03815163
53	0xbcd20810	-0.02563861
54	0x3dc20b68	0.09474832
55	0xbc344656	-0.0110030975
56	0xbdd66d40	-0.104700565
57	0x3d167935	0.036736686
58	0x3d4498ff	0.04799747
59	0x3d206228	0.03915611
60	0xbd30decc	-0.043181226
61	0x3d77c03f	0.060486075
62	0xbdb51dab	-0.08843549
63	0x3c826cef	0.015921084
64	0x3d249380	0.04017973
65	0x3d5e6f45	0.054305334
66	0x3d272ce4	0.040814295
67	0xbd803f5b	-0.06262084
68	0xbd33c4a7	-0.043888714
69	0xbd63fe60	-0.055662513
70	0x3d28dcf6	0.04122635
71	0x3c38f4db	0.011288847
72	0xbee791d8	-0.45228457
73	0xbdb981a4	-0.0905793
74	0xbe117f8a	-0.14208809
75	0xbd3d81fd	-0.046266545
76	0xbdc96cd9	-0.09835214
77	0x3a27e7ee	0.00064051047
78	0x3ce1d2ab	0.027566275
79	0x3b2de1b6	0.002653224
80	0xbbd816f5	-0.0065945336
81	0x3d77d947	0.060509946
82	0x3d87ec94	0.066369206
83	0x3e2f0c90	0.17094636
84	0xbd8d9417	-0.069130115
85	0xbce4608f	-0.027878074
86	0xbc85b6ec	-0.016322576
87	0x3c29c38d	0.010361564
88	0x3cf3a8ab	0.029743513
89	0x3c855606	0.01627637
90	0x3bd0aff2	0.0063686306
91	0x3cab5157	0.02091281
92	0xbd830bd0	-0.063987374
93	0xbdac4cf6	-0.08413117
94	0xbf261b50	-0.64885426
95	0xbd3b4524	-0.045720235
96	0xbd84902b	-0.0647281
97	0x3d6f9d93	0.058499884
98	0x3d64c603	0.0558529
99	0x3dbb6aba	0.09151216
100	0x3e31132a	0.17292467
101	0x3bc36ba5	0.00596376
102	0xbe9c3451	-0.30508664
103	0x3d94afe4	0.07260111
104	0x3c5b0049	0.013366767
105	0xbd7bf8f1	-0.061516706
106	0x3da2b72e	0.07945095
107	0xbd40b54b	-0.047047894
108	0xbd94ded3	-0.07269063
109	0xbd61ae28	-0.05509773
110	0x3d8672f0	0.06564891
111	0x3d858654	0.06519762
112	0xbd41eab1	-0.04734296
113	0xbaa25ead	-0.0012387835
114	0xbc5217ca	-0.012823055
115	0xbd163e5e	-0.03668057
116	0xbae976b1	-0.0017811862
117	0x3d0ee4b9	0.034886096
118	0x3d58b2eb	0.052905004
119	0x3ca33471	0.019922467
120	0x3e807a8b	0.25093493
121	0x3db86b0c	0.090047926
122	0x3dac10ca	0.0840164
123	0x3d3ea855	0.046547253
124	0xbb226c1f	-0.0024783683
125	0xbceec79a	-0.029147912
126	0x3c6dd52f	0.014516159
127	0xbd8d4a29	-0.068989106
128	0xbd6455d2	-0.055745907
129	0x3cdd2193	0.026993548
130	0xbc3f21ee	-0.011665804
131	0xbc9e9aad	-0.019360865
132	0xbcfea2d5	-0.031083504
133	0x3bb82725	0.0056199008
134	0x3b7c161a	0.0038465322
135	0x3c9bfc34	0.019041158
136	0xbc4ba11b	-0.012428547
137	0xbcb07f3e	-0.021545049
138	0x3d50b4c7	0.050953653
139	0x3ea29ccd	0.31760255
140	0xbd1d8261	-0.038454417
141	0x3c38e121	0.011284144
142	0xbd04a708	-0.032385856
143	0xbd6e58a5	-0.058190007
144	0xbd46469f	-0.048407193
145	0xbc261af9	-0.010138267
146	0x3dd60443	0.104500316
147	0xbb6772b0	-0.0035316162
148	0x3bb386fe	0.005478739
149	0xbe340ec2	-0.17583755
150	0xbd2e99bb	-0.042627078
151	0xbc839087	-0.016060127
152	0xbd957b85	-0.0729895
153	0x3d4501aa	0.04809729
154	0xbd423032	-0.047409244
155	0xbd5007d7	-0.050788727
156	0xbe311bc4	-0.17295748
157	0xbbf94749	-0.007607375
158	0x3e076014	0.13220245
159	0x3d933d3f	0.07189416
160	0xbd3cf69e	-0.04613363
161	0xb9381c38	-0.0001755812
162	0x3d2e9ab2	0.042627998
163	0x3ce1ac0e	0.027547862
164	0x3ca3487d	0.019932026
165	0x3c969455	0.018381277
166	0xbc3a66a9	-0.011377015
167	0x3c4a5d29	0.012351313
168	0xbec0e384	-0.3767358
169	0x3d9ad529	0.07560188
170	0xbcb32c63	-0.021871751
171	0xbd62d2ef	-0.055376943
172	0xbd8dc70f	-0.06922733
173	0xbd0f9f7d	-0.03506421
174	0x3db32cd5	0.087487854
175	0x3c5ba846	0.013406819
176	0x3d8a4f11	0.06753362
177	0xbd34dfaf	-0.044158634
178	0x3d9269de	0.07149099
179	0xbc37abdf	-0.011210411
180	0x3d537525	0.05162539
181	0xbd7195c7	-0.05898073
182	0xbd113df5	-0.035459477
183	0x3d444bbc	0.04792379
184	0x3c172aee	0.009226544
185	0xbc9bbc8b	-0.019010803
186	0xbd777b9b	-0.060420614
187	0xbba17aa7	-0.0049279514
188	0x3d74f26f	0.059801515
189	0xbd12cc3a	-0.035839297
190	0xbce4c89a	-0.027927686
191	0xbd894a03	-0.0670357
192	0xbd7c2583	-0.06155921
193	0x3d50d6b0	0.050985992
194	0x3db08589	0.0861922
195	0xbdb9a46a	-0.090645626
196	0x3d3a5a77	0.04549643
197	0x3c6a541c	0.01430228
198	0x3d8ef59c	0.0698044
199	0xbbfb57d6	-0.007670383
200	0x3cad9026	0.0211869
201	0xbc9aad15	-0.01888136
202	0x3d5ae4b2	0.053440757
203	0xbd806756	-0.0626971
204	0xbd655706	-0.055991195
205	0xba095d39	-0.00052400265
206	0x3d1d88bc	0.03846048
207	0x3c8a2ba0	0.016866505
208	0x3ce3348b	0.027735015
209	0x3d888a9b	0.06667062
210	0x3d0887df	0.0333327
211	0xbd35262d	-0.04422586
212	0xbcea0e85	-0.028571377
213	0xbd2a4936	-0.041573726
214	0x3b88a486	0.0041700033
215	0x3d92a8cd	0.071611024
216	0x3ba4234b	0.00500909
217	0xbda67a26	-0.08128767
218	0x3d6c9b99	0.057765577
219	0x3cc0384c	0.023464344
220	0x3b15c1c7	0.0022851096
221	0x3d7b7d60	0.061398864
222	0x3d1dfb0d	0.0385695
223	0xbc91d7cb	-0.017803093
224	0xbcc111bf	-0.023568032
225	0x3c15d55d	0.009145108
226	0x3d84ec19	0.064903446
227	0x3c66c331	0.014084623
228	0x3cc87104	0.024467953
229	0xbd8ccf43	-0.068754695
230	0xbd95b71e	-0.073103175
231	0x3cf360a1	0.029709162
232	0x3ce2e098	0.027694985
233	0xbdeed52a	-0.116617516
234	0x3b671633	0.0035261034
235	0xbd22ba5d	-0.03972851
236	0x3d2f17a1	0.042747144
237	0xbd945e0d	-0.07244501
238	0x3d17b9b5	0.03704234
239	0xbcbbee1a	-0.022940684
240	0xbdbe027b	-0.09277817
241	0x3ce0d328	0.027444437
242	0x3cce63d4	0.025194086
243	0xbd476d3b	-0.048688155
244	0x3b1e1855	0.002412339
245	0x3ce1567b	0.027507057
246	0x3cab004b	0.020874163
247	0xbdae9fb0	-0.08526552
248	0x3b4a15db	0.003083578
249	0xbd6ace86	-0.057325862
250	0xbce6e703	-0.028186327
251	0xbcf1930e	-0.029489066
252	0x3d7b5e73	0.06136937
253	0x3d8ab3d9	0.067725845
254	0x3c153d5e	0.009108869
255	0x3c4a17db	0.012334789

DNN_Layer.weight f4 [100, 200]
0	0x3ce81004	0.02832795
1	0x3d841d7b	0.064509355
2	0x3d676dff	0.056501385
3	0xbd07945d	-0.033100475
4	0x3d7df103	0.061997425
5	0xbd22bd0b	-0.039731067
6	0xbd824559	-0.06360883
7	0x3d3223b6	0.043491088
8	0xbd6255fd	-0.055257786
9	0x3a56dfc9	0.0008196799
10	0x3d86ad00	0.06575966
11	0x3dde8389	0.10864932
12	0xbb44e9cf	-0.0030046587
13	0x3c870ba3	0.016485041
14	0x3d209459	0.039203975
15	0x3ce3fc5b	0.027830293
16	0x3d294da6	0.041333817
17	0x3c5e10f9	0.013553851
18	0xbc074153	-0.008255321
19	0x3c8f5255	0.017495314
20	0xbd0a301a	-0.03373728
21	0xbd1e9062	-0.038711913
22	0xbcc039f6	-0.023465138
23	0xbc38c8e3	-0.011278364
24	0xbcd7a849	-0.026325362
25	0xbb58cbc3	-0.0033080436
26	0x3d0cb2bd	0.034350146
27	0xbd512616	-0.051061712
28	0x3d830502	0.063974395
29	0x3d3b9198	0.045793146
30	0x3dd01baf	0.1016153
31	0xbe150110	-0.14551187
32	0x3d87c242	0.066288486
33	0xbcfd09eb	-0.030888518
34	0xbd7c8641	-0.061651472
35	0x3bee3f91	0.0072707613
36	0x3dd710f2	0.10501279
37	0xbd9c2794	-0.076247364
38	0xbd6b905b	-0.057510715
39	0x3ccc0994	0.024906911
40	0x3d98ac0a	0.07454689
41	0xbc490018	-0.012268089
42	0x3c5e32ba	0.013561899
43	0x3cc58c6e	0.024114814
44	0xba2dddd8	-0.00066324836
45	0xbd95a3d1	-0.07306636
46	0x3d3aa90d	0.045571376
47	0x3c0d6166	0.008629179
48	0x3cb03f29	0.021514492
49	0x3dacca65	0.08437041
50	0xbcdf2b58	-0.027242348
51	0xbd01b083	-0.031662475
52	0x3d3e53c0	0.04646659
53	0xbc2fb6e9	-0.0107247615
54	0xbd691352	-0.05690319
55	0xbd543223	-0.051805627
56	0xbd87f603	-0.0663872
57	0xbc1e43c2	-0.009659709
58	0xbd31141a	-0.04323206
59	0xbdab6215	-0.08368317
60	0x3c8d0931	0.017216297
61	0xbcbcfd91	-0.023070129
62	0x3d991864	0.07475355
63	0x3c87524e	0.016518738
64	0xbc9a83b2	-0.018861625
65	0xbde19955	-0.11015574
66	0x3d1c9d13	0.038235735
67	0x3c05af6d	0.008159501
68	0x3d29ad78	0.0414252
69	0xbd6f1387	-0.058368232
70	0x3d838139	0.06421132
71	0x3af2898b	0.0018504126
72	0xbb2c2c04	-0.0026271353
73	0xbd0ffb7b	-0.03515194
74	0xbcf2eedf	-0.029654918
75	0x3ced9ce1	0.02900547
76	0x3d21845f	0.03943288
77	0xbda90626	-0.08253126
78	0xbdcaa5aa	-0.09894879
79	0x3d0633c5	0.032764215
80	0xbc875cee	-0.016523805
81	0xbcfecde5	-0.031104038
82	0xbc808cab	-0.015692076
83	0xba0de6f1	-0.0005413136
84	0x3ceb1884	0.028698213
85	0x39edda4b	0.00045366804
86	0xbd22d16c	-0.0397505
87	0xbd936e93	-0.07198825
88	0x3c1b29e4	0.009470437
89	0x3d98ee78	0.07467359
90	0x3d3ed5e6	0.04659071
91	0xbd4d0be8	-0.050060183
92	0x3d17ea0c	0.03708844
93	0x3d911921	0.07084871
94	0x3bd2b03c	0.0064297
95	0x3d208ee7	0.039198782
96	0x3c6686d7	0.014070234
97	0x3cb4d302	0.022073273
98	0x3d58053a	0.05273936
99	0xbd384069	-0.0449833
100	0x3bad9d2b	0.005298277
101	0xbd5602b1	-0.05224866
102	0xbd6fbaa1	-0.058527593
103	0x3b7a6294	0.003820573
104	0xbd558898	-0.05213222
105	0xbdad9d96	-0.08477323
106	0x3d875f5d	0.06609986
107	0x3db0d235	0.08633844
108	0xbd115a1d	-0.03548633
109	0x3c28c5c6	0.010301059
110	0xbc803d05	-0.015654096
111	0x3d596011	0.05307013
112	0x3d70b3ee	0.058765344
113	0xbc96cf8e	-0.018409517
114	0xbd30d0c4	-0.043167844
115	0x3d3f9bb1	0.04677934
116	0xbc95878e	-0.018253114
117	0x3d009a8c	0.031397387
118	0x3d347a89	0.04406217
119	0xbce8cc32	-0.02841768
120	0x3c28b718	0.010297559
121	0x3d1a639c	0.03769265
122	0x3e07ff3d	0.1328096
123	0x3cabe5f7	0.02098368
124	0xbd84782f	-0.06468236
125	0x3c7a3671	0.015271769
126	0xbda86517	-0.08222406
127	0x3d709967	0.058740046
128	0xbd912566	-0.07087211
129	0xbd15e717	-0.036597338
130	0x3d63dd8b	0.0556312
131	0xbbb3df63	-0.0054892763
132	0xbb947bd3	-0.0045313626
133	0xbcf91a9a	-0.030408192
134	0x3cb9331c	0.022607379
135	0xbdc172b4	-0.09445706
136	0xbd1f9160	-0.038957
137	0x3acbd88e	0.0015552209
138	0x3c194196	0.009354016
139	0xbe08a824	-0.1334539
140	0xbd5a6ffb	-0.05332945
141	0xbc267921	-0.010160715
142	0xbb99a1e4	-0.0046884883
143	0xbdac3c17	-0.08409899
144	0xbdb2b4f6	-0.08725922
145	0xbd1fe55e	-0.0390371
146	0xbd80c956	-0.06288402
147	0xbcbcfbdc	-0.023069315
148	0xbaaedc08	-0.0013340721
149	0xbd85e2d1	-0.065374024
150	0x3aacc56c	0.0013181395
151	0xbd837f92	-0.064208165
152	0x3ca57508	0.020197406
153	0x3c949e46	0.018141877
154	0x3cc3594a	0.023846287
155	0x3d21f528	0.03954044
156	0xbc6df124	-0.014522824
157	0x3d5acb24	0.053416386
158	0xbc9f395d	-0.019436533
159	0x3c048565	0.008088444
160	0x3dd7561f	0.10514473
161	0x3d876b8f	0.06612312
162	0xbd1a8c87	-0.037731674
163	0x3d9c5581	0.07633496
164	0x3ca43455	0.020044485
165	0xbc3e6323	-0.011620316
166	0xbc49f7fb	-0.01232719
167	0x3dc81e99	0.09771461
168	0x3c4c0f34	0.012454797
169	0xbd347561	-0.044057254
170	0x3d32240a	0.0434914
171	0x3d60a436	0.054844104
172	0xbd0fa175	-0.035066087
173	0x3d96f985	0.07371811
174	0xbd1b7e8d	-0.037962485
175	0xbd66d03a	-0.056350924
176	0x3d745dfe	0.05965995
177	0x3d143568	0.036183745
178	0xbd7bbae0	-0.061457515
179	0xbbfbdd4a	-0.007686292
180	0x3d316638	0.043310374
181	0x3d01ba38	0.031671733
182	0x3d8d3336	0.06894533
183	0xbd30a05c	-0.04312168
184	0x3cc92ddd	0.024558002
185	0x3a64e46f	0.0008731549
186	0xbbea632a	-0.0071529346
187	0xbd9a8b73	-0.07546129
188	0x3a1600d5	0.000572217
189	0xbbe4625d	-0.0069697336
190	0xbe0645d9	-0.13112582
191	0x3cfb9bc5	0.030713925
192	0x3d81a516	0.06330316
193	0xbd83f657	-0.0644347
194	0x3d10815b	0.035279613
195	0xbbdd024a	-0.0067446576
196	0x3d75cc44	0.060009256
197	0xbbc37859	-0.0059652743
198	0xbd81c898	-0.06337088
199	0xbd1027b4	-0.035194114
200	0xbd07d69b	-0.033163648
201	0x3d82d03f	0.06387376
202	0xbd8ed70f	-0.06974613
203	0x3c8fcdca	0.017554183
204	0xbde7dd47	-0.11321502
205	0x3e3177c7	0.17330848
206	0x3db0c4be	0.086312756
207	0x3e0775cc	0.1322853
208	0x3ecc6e60	0.3992796
209	0xbe457fdf	-0.1928706
210	0x3d579ce3	0.052639853
211	0xbda75c5f	-0.08171915
212	0x3d05c6b3	0.032660197
213	0x3d704619	0.0586606
214	0x3d0707c2	0.032966383
215	0xbda4bba6	-0.080436036
216	0x3c42d3bf	0.0118913045
217	0xbc31f821	-0.010862381
218	0xbc50361e	-0.012708215
219	0xbe5e6e18	-0.21721685
220	0x3c33b30b	0.01096798
221	0xbd89bbe0	-0.067252874
222	0x3deb7a68	0.114979565
223	0xbd2fb635	-0.042898376
224	0x3d823999	0.06358642
225	0xbc0bbe1d	-0.008529213
226	0x3d1588e8	0.036507517
227	0x3d389e25	0.045072693
228	0x3d65277a	0.05594585
229	0xbddb0ed6	-0.10696189
230	0xbe32c8bc	-0.17459387
231	0x3df26003	0.11834719
232	0xbd74d8bc	-0.059777007
233	0x3eb936f3	0.36174735
234	0x3dc1f96a	0.094714
235	0x3dac21e2	0.084049
236	0xbdefe1a5	-0.1171296
237	0x3ea5b498	0.32364345
238	0x3e519fb5	0.2047108
239	0x3da15b60	0.078787565
240	0xbd1a68c2	-0.03769756
241	0xbcf9e75f	-0.030505834
242	0xbcb81538	-0.022471055
243	0x3d303e2b	0.043028038
244	0xbdf3cd03	-0.11904337
245	0x3da1cdae	0.079005584
246	0x3ca4f95e	0.020138439
247	0xbd756a84	-0.059916034
248	0x3e487126	0.19574413
249	0xbdd621c9	-0.10455663
250	0x3d0aaee6	0.033858202
251	0x3e23fcae	0.16014358
252	0x3ddb0d9d	0.10695956
253	0x3cec2093	0.028824126
254	0x3c86869e	0.016421612
255	0xbd01ac5a	-0.031658508

DNN_Layer.bias f4 [100]
0	0x3e33c369	0.17555012
1	0xbeafa5fe	-0.3430633
2	0x3e45a30f	0.19300483
3	0xbe625f35	-0.22106631
4	0xbf35a0eb	-0.70948666
5	0x3f106354	0.5640156
6	0xbf548d92	-0.8302852
7	0x3d3d9fe6	0.04629507
8	0x3e69e90b	0.22842805
9	0x3eb6f9aa	0.35737354
10	0x3e4746e2	0.19460633
11	0xbe7d5612	-0.24739864
12	0x3f185519	0.5950485
13	0xbfbdda3d	-1.4832226
14	0x3f04ba08	0.5184636
15	0xbf00bde7	-0.5028977
16	0x3fa2e270	1.2725353
17	0x3e37fdb7	0.17967878
18	0xbdc748ec	-0.097307056
19	0x3ebc7a5c	0.36812103
20	0xbf2cea89	-0.6754537
21	0x3d2b8ef6	0.041884385
22	0xbdfb4ffd	-0.12271116
23	0x3f9922bb	1.1963724
24	0xbacb7c32	-0.0015524684
25	0xbf0f5cad	-0.56000787
26	0xbec4d1eb	-0.38441405
27	0x3e3a9830	0.18222117
28	0x3ebc0404	0.36721814
29	0xbe68a86f	-0.22720502
30	0xbe0312e9	-0.12800182
31	0x3e192585	0.14955719
32	0xbe97e541	-0.29667094
33	0xbe450dde	-0.19243571
34	0x3f4901b0	0.785182
35	0x3f1bc0ec	0.6084125
36	0x3ea42bbe	0.32064623
37	0x3e6a3001	0.22869875
38	0xbeb180fa	-0.34668714
39	0xbef1f341	-0.472559
40	0xbf219790	-0.6312189
41	0x3f3f4847	0.7471966
42	0x3da35d6e	0.07976805
43	0x3ed7e299	0.42165068
44	0xbf162cce	-0.58662117
45	0x3ec349ae	0.3814215
46	0xbdae4688	-0.085095465
47	0xbf91f63b	-1.1403269
48	0xbe1ce8d3	-0.1532319
49	0xbd976f8e	-0.07394324
50	0x3f0fb33a	0.56132853
51	0xbf522861	-0.82092863
52	0xbeda6093	-0.42651805
53	0xbee64c3d	-0.4498004
54	0xbe9e5414	-0.30923522
55	0xbec4ef1c	-0.38463676
56	0x3f04813a	0.51759684
57	0x3da5f72c	0.08103785
58	0xbd8dc95a	-0.069231704
59	0x3f64a198	0.8930907
60	0x3d904b1c	0.07045576
61	0x3ec35e4d	0.38157883
62	0xbf0fc774	-0.56163716
63	0xbf3d8558	-0.7403159
64	0x3ec97863	0.3934966
65	0x3baa5857	0.005198519
66	0xbeb6d3ca	-0.35708457
67	0xbe14b664	-0.14522702
68	0xbe8d2d01	-0.27573398
69	0xbd076fba	-0.033065535
70	0x3c2afd79	0.010436409
71	0x3e441a16	0.19150576
72	0xbf1587d2	-0.5841037
73	0x3d11c28c	0.035585925
74	0x3f05f9d9	0.5233436
75	0xbe83259a	-0.25614625
76	0xbf690a5d	-0.9103144
77	0xbea4a887	-0.32159826
78	0xbe75ec7d	-0.24015994
79	0xbddea617	-0.10871523
80	0xbf1ac624	-0.6045859
81	0x3eef30ff	0.4671707
82	0xbe471a36	-0.19443592
83	0x3e8d9fce	0.27660984
84	0xbe4684fd	-0.19386669
85	0xbf63ab5e	-0.8893336
86	0x3f3ddec2	0.74168026
87	0x3ef08bda	0.46981698
88	0xbf66e2c6	-0.9018978
89	0x3efeb014	0.49743712
90	0x3f499f4a	0.7875868
91	0x3eeb7c52	0.45993286
92	0x3e8d72dc	0.27626693
93	0x3de49e34	0.11162987
94	0xbf808b1e	-1.0042455
95	0xbec06825	-0.37579456
96	0xbee44d84	-0.4459039
97	0xbf34a603	-0.70565814
98	0x3dc7d905	0.0975819
99	0x3f1ff755	0.62486774

DNN_Layer2.weight f4 [1, 100]
0	0xbdacec84	-0.08443549
1	0xbe1c0221	-0.15235187
2	0xbec4af20	-0.3841486
3	0x3e03afe3	0.12860064
4	0xbe5e8474	-0.21730214
5	0x3d59da43	0.053186666
6	0xbef6e0c3	-0.48218355
7	0xbeaa9a6f	-0.33320948
8	0x3e872f09	0.26403072
9	0x3e6a9ac7	0.22910605
10	0x3e212001	0.15734865
11	0xbe7d348d	-0.24727078
12	0x3e61529d	0.2200417
13	0xbe9faf24	-0.3118831
14	0xbd88d5d8	-0.066814125
15	0xbea07b9a	-0.313443
16	0x3eb073cc	0.34463346
17	0x3e20962c	0.15682286
18	0x3d0660ae	0.032807045
19	0xbda1aea2	-0.07894637
20	0x3e04ebb2	0.12980536
21	0x3e065fbb	0.13122456
22	0xbd7145b1	-0.058904354
23	0x3db1fd9d	0.08690951
24	0xbdb6aa21	-0.08919168
25	0xbea333c0	-0.3187542
26	0xbe8401df	-0.25782678
27	0xbdae1826	-0.085007
28	0x3e192e6d	0.14959116
29	0x3e60564f	0.21907924
30	0xbef79178	-0.4835317
31	0xbd435847	-0.04769161
32	0x3c32ba42	0.010908665
33	0x3dabdf1d	0.08392165
34	0x3e92a1fd	0.28639212
35	0x3e67a709	0.22622313
36	0x3e552c33	0.20817642
37	0x3e51823f	0.20459841
38	0xbe2b2db8	-0.16716659
39	0xbe8fb3f1	-0.28066972
40	0xbdff14e7	-0.12455159
41	0x3d3779af	0.04479378
42	0xbe11b8c1	-0.14230634
43	0x3dc52c8e	0.09627639
44	0xbcca48bf	-0.024692891
45	0x3dcaeb01	0.09908105
46	0x3b87ca81	0.0041440134
47	0xbe28078e	-0.16409132
48	0x3cdf9517	0.027292771
49	0xbdca847f	-0.09888553
50	0x3e926ecf	0.28600165
51	0xbecb0840	-0.39654732
52	0xbd8a61d1	-0.06756938
53	0xbdacc833	-0.084366225
54	0x3c4f1c7e	0.01264107
55	0xbd8d650a	-0.06904037
56	0x3e9ae2ef	0.30251262
57	0xbdf4fb01	-0.11961938
58	0x3d4620b3	0.04837103
59	0x3eb8d4ea	0.3609994
60	0xbcb41fe3	-0.021987861
61	0xbc34c49a	-0.011033202
62	0xbdd13ab6	-0.10216276
63	0xbcded149	-0.027199404
64	0x3e38fc83	0.18065076
65	0xbe0c5903	-0.1370583
66	0x3e267da2	0.16258863
67	0xbe5b6d8a	-0.21428505
68	0xbd85e8db	-0.06538554
69	0x3b838dbd	0.0040146993
70	0x3d4e8aa3	0.050425183
71	0xbe0c619a	-0.13709107
72	0xbd1a8426	-0.037723683
73	0x3d83bca6	0.06432466
74	0xbda5bb6d	-0.08092389
75	0xbed1eb74	-0.4099995
76	0xbe0f90dd	-0.14020105
77	0x3d2a960d	0.041647006
78	0x3dce11ef	0.10062014
79	0xbdba391d	-0.09092925
80	0xbd6798f7	-0.056542363
81	0x3e0733f8	0.13203418
82	0x3e4776c4	0.19478899
83	0x3e65e488	0.22450459
84	0xbda1c92a	-0.07899697
85	0xbe04b9d9	-0.1296152
86	0x3e843822	0.25824076
87	0x3e18e966	0.14932784
88	0xbe85d021	-0.26135352
89	0x3e2be6ac	0.16787213
90	0x3d1765cb	0.03696231
91	0x3eec8f00	0.4620285
92	0x3cf2a247	0.029618395
93	0x3d56304e	0.05229216
94	0xbee359a7	-0.44404337
95	0xbd5e3cac	-0.05425708
96	0xbdf27abe	-0.118398175
97	0xbeb37407	-0.3504946
98	0x3ee4899c	0.44636238
99	0x3e8b7a62	0.27241808
