experiments/leftovers/trained_model_experiment0_normalization_v3_in_get_item_dataset.pth (torch, 733912 bytes, 7 tensors)

Stock_price_layer.weight_ih_l0 f4 [800, 1]
000000 42 d2 d7 bc a2 7d 8c 3c 7d de b1 3c 53 e1 81 3c
       -0.026345376 0.01714975 0.021712536 0.015854513
000010 d2 e0 d5 3c ba 4b b7 bb e8 4e 7c 3d 52 3e e4 bc
       0.02610818 -0.005593744 0.06159869 -0.027861748
000020 92 64 54 3d 8a 07 aa bc 20 7c 68 bd 97 40 34 3b
       0.051853724 -0.020755548 -0.056759 0.002750432
000030 d6 3f 65 bd f1 7e ff 3c 56 c1 b2 3c aa a3 fb 3c
       -0.05596908 0.03118846 0.021820705 0.03071769
000040 6f de 38 bd 43 54 05 bd e7 19 8d bd ca b5 2c 3a
       -0.045134004 -0.03255106 -0.06889706 0.0006588368
000050 d6 d7 23 3d 21 f1 30 bd ca f2 62 bd b2 47 12 3d
       0.04000076 -0.04319871 -0.055407323 0.035712905
000060 28 26 83 bc dc ac 70 3d 4f 5b 67 bd 77 ae d8 bc
       -0.016009405 0.0587586 -0.056483563 -0.026450379
000070 26 d2 81 3c 27 ee 88 bc 15 1b 11 3d e1 c7 5d bd
       0.015847277 -0.016715122 0.035426218 -0.054145698
000080 c1 4a 80 3d 3b 5f 76 3d 67 78 27 3d 47 f6 84 bd
       0.06264258 0.060149413 0.04088631 -0.06492286
000090 55 7c 8d bd 97 a9 5d 3d e7 98 88 bd 89 88 7b bd
       -0.0690848 0.05411681 -0.06669789 -0.061409507
0000a0 8c c3 c6 3b 35 69 03 bc be 20 13 3c 2d 2f 96 3c
       0.0060657915 -0.008020689 0.008979974 0.018333042
0000b0 ae 06 20 bd 62 e1 17 3d d5 d5 32 bd 11 21 4b 3d
       -0.03906887 0.037080176 -0.043660957 0.04959208
0000c0 85 bf 32 bd 4b 39 eb bc 5f 5d 60 bd 1d 95 10 3c
       -0.04363968 -0.028713843 -0.054776546 0.008824614
0000d0 37 ca 2c 3c 81 eb 7a 3d 2c bd 60 3d 5e 0c d1 bb
       0.010546259 0.06125975 0.05486791 -0.006379648
0000e0 f6 a9 ba bc fc 5e d8 bc 25 3a bd 3c 1a d7 82 3b
       -0.022786122 -0.02641248 0.023099015 0.0039929273
0000f0 c8 9f e1 bc 32 5f 15 3d 71 4e f1 bc 04 6f 8f bd
       -0.02754201 0.03646774 -0.02945635 -0.070035964
000100 7b 18 a9 bc b7 06 8e 3c 2b 99 62 3d 58 d2 04 3d
       -0.020641556 0.017337186 0.055321854 0.032427162
000110 5a f8 1e bb 4b f7 53 3c 9b 60 75 3d 29 5b 69 bc
       -0.0024256916 0.012937377 0.059906583 -0.014242926
000120 cc e6 f5 3c 59 e8 d1 bc df 77 6d bd e6 ae de 3b
       0.03001728 -0.025623487 -0.057975646 0.006795752
000130 1d c2 5a 3d 32 82 3c 3d b4 ff 09 3c 8b cb 5b 3d
       0.053407777 0.0460226 0.008422781 0.05366091
000140 2a e5 85 bd ea b1 2d 3d 16 70 87 3d d8 36 c8 37
       -0.0653785 0.042406 0.066131756 2.3867397e-05
000150 9a b3 f5 3b cb 88 f6 ba 74 bf 69 3c 88 91 ee 3c
       0.007498217 -0.0018809078 0.014266837 0.02912213
000160 51 0f ae 3c 4f 52 68 bd 12 ed 1f bc 45 00 3a 3d
       0.021247538 -0.05671912 -0.009761112 0.045410413
000170 09 92 25 bc 76 6d 86 bd 31 c1 47 3d 12 36 7f 3d
       -0.010105618 -0.06563847 0.048768226 0.062307425
000180 79 ee 8b bc 23 58 0e bd 62 d2 82 bd 9a 55 b7 3c
       -0.017081486 -0.034752022 -0.063877836 0.022379685
000190 a3 bb 8a 3d 1f ac 29 3b 7f 15 0d bd 2e 9a 8b bd
       0.0677407 0.0025889946 -0.03444433 -0.06816517
0001a0 a4 52 03 3d f1 b9 8d 3c 93 eb 61 3d ee dc 02 bd
       0.032061234 0.017300578 0.0551563 -0.031948976
0001b0 6e 7a 76 bd 6d 1c 74 bd be 0f e5 bc a3 62 6f bd
       -0.06017535 -0.05959742 -0.027961608 -0.058443677
0001c0 c9 b1 07 3b a5 2f 3d 3d 52 0f 8c bd 50 5f 16 ba
       0.0020705333 0.046188015 -0.068388596 -0.00057362486
0001d0 3c 7a b8 3c 75 85 78 3d 73 d7 62 bd 05 b2 1a bd
       0.022519223 0.06067415 -0.05538125 -0.03776743
0001e0 e6 d3 46 bd f2 ee cf 3c 0b 85 0c bd a2 5f 90 3c
       -0.048541926 0.025382493 -0.034306567 0.017623726
0001f0 9d ac 71 bd 24 9c 5d 3d 3c 18 8d 3c 33 85 9e bc
       -0.059002507 0.054103985 0.01722347 -0.019350624
000200 95 83 8d 3c e2 23 e3 3c ea 7d 7d 3d 15 8c e9 bc
       0.017274657 0.027727071 0.06188766 -0.02850918
000210 a5 56 de bb 2a 29 10 3c df 44 86 3d 5f f1 84 bd
       -0.006785231 0.008798877 0.06556105 -0.064913504
000220 2c 76 62 bd 8b eb 37 bd 2f 45 5f 3d d6 ff d7 3c
       -0.05528848 -0.044902366 0.054509338 0.02636711
000230 86 e5 e1 bb 86 99 86 bd ed 81 5e 3d 6c 83 82 bd
       -0.0068938164 -0.06572251 0.054323126 -0.06372723
000240 74 ed d9 bc f2 07 80 bd 56 45 81 3d d3 e2 88 3b
       -0.026602484 -0.062515154 0.06312053 0.00417743
000250 1f 8e 21 bd bf 93 49 bd 2a 6f b3 bc 7e 3c 22 3b
       -0.039442178 -0.049213167 -0.021903593 0.0024755294
000260 bd 5b 53 bd 65 49 2a 3d 87 e9 78 bd 2c e5 df bc
       -0.05160116 0.0415739 -0.060769584 -0.027330957
000270 8a 58 b9 3c 0e af 87 3d 44 a3 7b bc fc 4f 3f 3d
       0.022625227 0.06625186 -0.01535875 0.04670714
000280 5e e2 32 bd 20 77 e3 3c a8 6e 90 bd 8d 31 60 3d
       -0.04367291 0.027766764 -0.07052356 0.054734755
000290 01 68 c9 3c 9d 07 14 bd d4 f7 16 3d e0 9c 3c bd
       0.024585726 -0.036140073 0.03685744 -0.046048045
0002a0 22 b3 f8 3c 95 74 21 3d 1b 45 5b 3d 19 82 86 3d
       0.030358855 0.039417822 0.0535327 0.06567783
0002b0 77 d3 9b bc cc 95 3b 3c 70 00 4e 3d e4 61 90 3d
       -0.019021733 0.011449289 0.050293386 0.07049921
0002c0 a2 d0 7b bc 4e 1e 8f bd bb d3 99 3c 30 b7 bf bc
       -0.015369566 -0.06988202 0.018777719 -0.02340278
0002d0 af bd c0 bb ff 29 90 3d af a2 44 bd 60 61 8b 3d
       -0.005881987 0.0703926 -0.04800671 0.06805682
0002e0 38 84 63 3d 1c a5 16 bc b9 94 d6 bc c0 e7 ac 3b
       0.055546016 -0.009194639 -0.026193963 0.00527665
0002f0 d7 fb 8d bd 3a 9c 84 3d 44 ee eb 3c 05 2c 89 bb
       -0.069328 0.0647511 0.028800137 -0.0041861557
000300 7a de 12 3d 97 e8 57 bd fa 90 2d 3d 47 43 ed 3c
       0.0358567 -0.05271205 0.04237459 0.028962744
000310 99 2b 2e 3d 85 50 88 bd b9 2f 59 39 eb 29 01 bd
       0.042522047 -0.06655983 0.00020712511 -0.031534117
000320 61 60 59 3d 22 39 31 3c 1d d6 65 bd 8d 3a 45 bd
       0.05307043 0.010816844 -0.056112397 -0.04815154
000330 0d 10 ec 3c d5 88 71 3d d5 f7 64 bd 7b 23 27 bd
       0.028816247 0.058968384 -0.055900414 -0.04080532
000340 ec dc a3 3c cb c4 bc bc 8b 53 85 3c 18 c0 d8 3a
       0.020002805 -0.023043057 0.016275188 0.0016536741
000350 e4 35 81 bc 27 8d 56 3d e3 2a 82 3b 8d 8b 06 bd
       -0.015772767 0.052380707 0.0039723977 -0.03284793
000360 9b 36 41 bd 4b 58 46 bd 1d 67 82 bd f6 05 06 3c
       -0.047171216 -0.048424046 -0.063673235 0.008180132
000370 27 e7 76 3c 9a 56 61 3d 3c 32 1e bd 44 69 8f 3d
       0.015069759 0.05501423 -0.038622126 0.070025
000380 79 83 3f 3d 94 16 7f 3c ad 87 38 3d 7b a6 87 bc
       0.04675624 0.015569348 0.045051266 -0.016558876
000390 3d d1 9e 3c 5d 2d 15 bd 6e 41 82 3d 8f a6 82 3d
       0.019386882 -0.036420215 0.06360136 0.06379425
0003a0 a2 cd 75 3c 59 e4 82 3c 46 0e 11 3d 19 9f 84 3c
       0.01500264 0.015978025 0.035414003 0.016189145
0003b0 fa 6e 4c bc 58 48 61 bd 78 f3 38 bd bf c1 7c 3d
       -0.012477631 -0.055000633 -0.045154065 0.06170821
0003c0 38 77 88 bd 15 e9 80 3c 63 d9 72 3d 94 2f d6 bb
       -0.06663364 0.015736142 0.059289347 -0.0065364335
0003d0 e7 85 b2 3c 8e 9e 9f bc f2 2a 5d 3d 00 f6 67 3d
       0.021792365 -0.019484784 0.053996034 0.05663109
0003e0 b5 8f 4b 3d d9 8f 3e 3d f1 53 40 3b c3 4b 90 3c
       0.049697597 0.046523903 0.0029346908 0.017614251
0003f0 37 85 35 3c f8 3e a7 bc b2 96 8c bd 2a ae 16 bd
       0.011079124 -0.020415768 -0.0686468 -0.03678719

Stock_price_layer.weight_hh_l0 f4 [800, 200]
000000 72 93 93 3c d8 bd ce 3c 49 21 36 3c 34 60 cf bc
       0.018014643 0.025237009 0.011116334 -0.025314428
000010 3c ad 0c bc 5b 17 70 bd b7 10 c0 3b 40 0e 5a 3d
       -0.008586224 -0.058616024 0.0058613676 0.053236246
000020 02 63 3b 3c 6b c8 91 3b 3f db b8 bc e7 1c cf bc
       0.0114371795 0.0044489405 -0.022565482 -0.025282336
000030 35 81 0b bd 8a 81 8f 3d 29 ca cd 3c b7 c8 88 3d
       -0.03405877 0.070071295 0.025120812 0.06678908
000040 c1 e7 8a 3d 5a 1a 20 bd cb 22 16 bd bb be 88 3d
       0.06782485 -0.03908763 -0.036654275 0.06677004
000050 3e 18 56 bd 40 03 fa 3c cc 1c 1d 3d 98 9e 52 bc
       -0.052269213 0.030519128 0.03835754 -0.0128551945
000060 d2 46 6e 3d 69 b9 f3 bc 2d 09 39 bc c3 71 99 3c
       0.05817301 -0.029751496 -0.011293692 0.018731004
000070 e5 b0 97 3c 08 14 41 bd a1 c8 d1 3c 4a 4b ce 3c
       0.018516967 -0.047138244 0.025608363 0.025182385
000080 ee 92 69 bd 6e 89 21 3d ec f9 9e 3c f9 ae 44 bd
       -0.05702489 0.039437704 0.019406281 -0.04801843
000090 a7 cd 8d 3d 86 1a e1 bc 64 a3 25 3d e0 75 03 bc
       0.06923991 -0.027478468 0.040439025 -0.008023709
0000a0 12 03 12 3d af 22 83 3d 9c 8e f7 bc 40 44 12 bc
       0.03564746 0.064031 -0.030219369 -0.008927405
0000b0 e7 6c 82 3d 9e 01 67 3d 3b c4 b3 bc 4b e7 85 3d
       0.06368428 0.056398027 -0.021944156 0.06538256
0000c0 50 a7 4d bd 90 44 9b bc 28 a3 c0 3c 43 c1 b8 bc
       -0.05020839 -0.018953592 0.023515299 -0.022553092
0000d0 40 cc 14 3d 81 27 88 3d cc 5e 95 ba fd 28 3f bd
       0.0363276 0.0664816 -0.001139605 -0.04666995
0000e0 8b 10 ac bb ee 10 be 39 48 73 1c bd 6c 6f 87 bd
       -0.0052509955 0.00036252238 -0.03819588 -0.06613049
0000f0 bf 64 4e bc 53 81 8a 3d 52 92 35 bc f4 e1 d9 3c
       -0.012597262 0.06762948 -0.011082249 0.026597
000100 94 47 68 bc 68 cf c5 3c 92 f9 3b 3c 23 49 70 bd
       -0.014177222 0.02414675 0.011473076 -0.0586635
000110 64 75 54 3d 6f 65 e5 bb c9 7c 84 bd 64 73 38 3d
       0.051869765 -0.007000617 -0.064691134 0.04503192
000120 c0 80 59 3c 13 ce 03 bc 48 de 61 bd 48 a3 72 bc
       0.013275325 -0.008044737 -0.055143625 -0.014809437
000130 30 62 88 bd d9 e4 ff bb 94 9d f1 3c dd 4e 84 3d
       -0.06659353 -0.007809263 0.029494084 0.064603545
000140 a0 b3 4e 3d 05 07 52 3d 22 8b f5 3c 9d f7 b9 bb
       0.050464272 0.051276226 0.02997357 -0.0056752698
000150 67 98 96 bc af 13 30 bc 9a fd 1c 3d 0a 23 08 3d
       -0.018383218 -0.01074688 0.03832779 0.03323654
000160 04 79 e7 3c 6a 2a 70 3c f3 21 7a bd f6 a7 43 bd
       0.028255947 0.01465855 -0.061067533 -0.047767602
000170 28 17 e1 bc e8 2e 8c bd 2d 01 b9 3b 05 ad 13 bd
       -0.027476862 -0.06844884 0.005645892 -0.036053676
000180 0d 6f 43 bd ab 26 f9 bc fc f1 7d bd 6e ff 32 bd
       -0.04771333 -0.030413946 -0.061998352 -0.043700628
000190 3a f4 78 3c 56 c4 57 3d 0c cd e7 bc a5 da 2f 3c
       0.015194947 0.052677475 -0.028296016 0.010733281
0001a0 cf ee 8e bd cc 63 f1 bc 60 ea d1 bc 40 42 9a bc
       -0.06979143 -0.029466532 -0.025624454 -0.018830419
0001b0 8a 8e 46 bd 51 57 af bc be 93 6a 3d 95 ac 8c 3d
       -0.04847578 -0.02140394 0.057269804 0.06868855
0001c0 d8 1a 3a bc 12 56 45 3d 78 96 06 bd c2 6f e1 3c
       -0.011358939 0.048177786 -0.032858342 0.02751911
0001d0 70 f1 87 bc af 1d 2c 3d 0e 3a 02 bd d5 a6 14 3b
       -0.016594619 0.042020496 -0.031793647 0.0022682447
0001e0 51 e6 2f bd d8 f4 39 bd 3c e5 cb 3c 13 34 16 3c
       -0.042944256 -0.045399517 0.02488958 0.009167689
0001f0 1c 54 61 bb 8f 2d 26 3d 7e 88 50 3d cd 09 5f bd
       -0.0034382408 0.04057079 0.05091142 -0.054452706
000200 ee ff 4c bb 82 18 3c bb 14 4c 81 bc 97 85 fa bc
       -0.0031280476 -0.0028701131 -0.015783347 -0.030581279
000210 4e 3e 46 bd 52 7c b4 ba 33 78 59 3c 7e 84 4e bd
       -0.048399262 -0.001376996 0.013273287 -0.050419323
000220 42 ba cc bc b4 2d 1d bd 73 c5 d6 bc 69 6b 66 3d
       -0.024991158 -0.038373664 -0.026217198 0.056254778
000230 1e a8 71 bd 94 ed 41 bd cc 44 3b bd bf 48 8e bd
       -0.05899822 -0.047345713 -0.045719907 -0.06947469
000240 55 f3 86 3d 37 f4 56 3d 50 00 5b 3d 3d c1 8c bd
       0.06589381 0.052478995 0.053467095 -0.06872795
000250 7b 7e 0f bd 80 9d 2b bd ad 5f 8b bd 07 ef cd bc
       -0.03503273 -0.04189825 -0.06805358 -0.025138391
000260 ee 4b 54 bd 08 e9 03 bb 98 cf 30 3d aa d5 75 3d
       -0.051830225 -0.002012791 0.043166727 0.06001822
000270 24 b3 d7 bc 37 3e 71 bd 13 97 2c bd ca 19 16 3d
       -0.026330538 -0.058897223 -0.042136263 0.036645688
000280 50 16 06 3d 6d 4c 34 3d 80 6e 10 3d 7e ce 6e bd
       0.032736123 0.044018198 0.03526163 -0.058302395
000290 fc 1b 5c bd 0a 1e 34 3d 98 2e 09 bd 4e e1 0a bd
       -0.053737625 0.04397396 -0.0334917 -0.033906274
0002a0 62 5a 6f 3d aa 1f 6c bd c5 8f ae bc 57 22 05 bd
       0.058435805 -0.057647385 -0.021308789 -0.032503452
0002b0 54 63 3f 3d 2d 0c 7a bd ca 5a 6a 3c 6f f8 83 bd
       0.046725586 -0.061046768 0.014303872 -0.06443869
0002c0 d1 8b 60 3d 50 23 78 3d b2 53 20 bd 8e b3 89 3d
       0.05482084 0.06058055 -0.039142318 0.067237005
0002d0 5e 64 22 3d 9b 81 65 bd 6d 16 22 bc cb 29 ef 3c
       0.0396465 -0.056031805 -0.009893042 0.029194733
0002e0 68 6d 6c bc c9 7a 38 3a fe ce 80 bd 75 6c 32 ba
       -0.014430381 0.00070373394 -0.062894806 -0.00068063225
0002f0 e6 11 59 bd 3c dc 96 3c c2 8f 69 3d d6 9b 73 3d
       -0.052995585 0.018415563 0.057021864 0.05947479
000300 79 ae d9 bc fc 5e 30 3d 6c cc 2a bd 39 1f a7 3c
       -0.026572453 0.043059334 -0.04169886 0.02040063
000310 2c d0 3e bd d2 d0 f0 3c 50 e3 bb 3b 90 2c c0 3c
       -0.046585247 0.029396448 0.005733885 0.023458749
000320 f8 48 0e bd 66 ab 60 bd 92 47 82 bc 86 55 0f 3d
       -0.034737557 -0.05485096 -0.015903268 0.03499367
000330 5f df 7a 3d c7 f1 12 3d 72 52 5f 3b a5 4b 4c 3d
       0.06124818 0.035875108 0.003407624 0.049876828
000340 df 6f d6 bc 78 26 18 3d 75 93 47 3d 68 94 f7 3c
       -0.026176391 0.03714606 0.04872461 0.030222133
000350 d0 b8 2f 3b 5f 99 1d bc 07 f7 1b 3d b8 c8 1b bd
       0.0026813038 -0.009619086 0.03807738 -0.038033217
000360 cc 20 51 bc d1 e4 aa bc 35 1e 34 3d eb 78 2e 3d
       -0.012764167 -0.020861061 0.04397412 0.042595785
000370 05 70 ab 3c 83 97 3d 3c ad 05 28 3b 92 bb 8c bb
       0.020927439 0.011571768 0.0025638149 -0.004294821
000380 3a 36 14 bd 9b 3a f7 bb 7d 19 10 3d 6e 8d 06 bd
       -0.036184527 -0.007544828 0.035180558 -0.03284972
000390 7b 39 c4 ba 1c d6 01 bb 0c 1c 85 bd fb 54 c2 3c
       -0.0014970744 -0.0019811457 -0.0649949 0.023722162
0003a0 31 6c 4a bc 3e 6f 04 3d 70 f6 05 bc 3c 6d 1c bd
       -0.012354896 0.03233265 -0.008176431 -0.03819011
0003b0 d7 6d 44 3c 9b 9e 85 3d ed b6 77 bb 2c 65 fa 3c
       0.0119890785 0.06524392 -0.0037798241 0.03056582
0003c0 d0 6e 5d 39 d7 c5 8f 3c a1 d3 4f 3d da b4 f6 3c
       0.00021117483 0.017550392 0.050738934 0.030115534
0003d0 79 a0 01 3c 02 22 88 bc 3d 29 2d bb ca 7b 6d bd
       0.007911795 -0.016617779 -0.0026422285 -0.057979383
0003e0 8f 1b 29 bd 00 68 6f 3d 3c 3b 39 bd d9 c7 24 3d
       -0.041286048 0.05844879 -0.045222506 0.040229652
0003f0 80 78 5f 3d 1f 2c 3a 3d 92 c3 53 3c 66 96 25 3c
       0.054558277 0.045452233 0.012925046 0.010106659

Stock_price_layer.bias_ih_l0 f4 [800]
000000 f5 79 aa bc 80 10 43 3d 81 35 82 3b 51 e0 0c 3c
       -0.020810107 0.047623158 0.0039736633 0.008598403
000010 58 75 58 bd 24 67 15 bc 4a 33 c4 3c 74 cf 81 3a
       -0.052846283 -0.009118829 0.023950238 0.0009903745
000020 f9 26 60 bd c3 9f c9 bb c2 f0 2c 3c c3 8b 2b bd
       -0.054724667 -0.0061530783 0.010555448 -0.041881334
000030 0a 96 94 bc 86 3f 5b 3d 4f a8 86 bd a8 3a 5b bd
       -0.01813795 0.053527378 -0.06575071 -0.053522736
000040 d3 9f 8c 3d 54 e5 de 3a ac 20 33 bd 99 4b d1 bc
       0.068664216 0.0017005601 -0.04373233 -0.025548743
000050 d1 43 76 3d 2b 1b 77 bd ca e7 df bc 36 e0 14 3d
       0.06012327 -0.060328644 -0.027332205 0.036346637
000060 9b 4e 3a 3c bb 3e 28 3d 58 60 ad bc 31 f8 82 3b
       0.01137128 0.04107545 -0.021164104 0.003996872
000070 5f d0 99 3c 69 c0 cf bb 63 49 67 bc c3 77 6d bc
       0.018776117 -0.0063400757 -0.014116618 -0.014493885
000080 fe 2c 3e 3d a4 f6 75 3d 1f 79 c6 bc 21 e5 15 bd
       0.046429627 0.060049668 -0.024227677 -0.036595467
000090 33 26 7f 3d b6 12 51 bd 0e 92 20 bc f3 e9 b8 bb
       0.06229229 -0.051043235 -0.009800447 -0.0056431233
0000a0 a2 50 00 bd 8c 53 b5 ba fc a7 b5 bc 3d 4d 64 bd
       -0.031326897 -0.0013834103 -0.022174828 -0.055737723
0000b0 4f a3 7f 3d 8d 65 17 bd 87 90 34 bd cc 19 67 3d
       0.062411603 -0.03696208 -0.044083145 0.056421086
0000c0 e5 b6 9c 3c b2 25 58 bd 7c ff 93 3c 6a d3 1a 3d
       0.01913018 -0.052770324 0.01806616 0.037799276
0000d0 7f 0a 6f 3c d6 a9 0d 3d 4a 69 83 bc ea 88 89 bc
       0.014589905 0.034585796 -0.016041417 -0.016788919
0000e0 64 f5 2d 3d 71 48 2c 3c 57 ea 00 3d 68 5a 2f bd
       0.04247035 0.010515318 0.031473484 -0.042810827
0000f0 4f f8 6f bc 87 87 44 bd 01 da 45 bc 67 88 9a bc
       -0.014646604 -0.04798081 -0.012075902 -0.01886387
000100 20 92 a8 bc a5 3a 30 bd ea dd 4c bd 65 6a bd 3c
       -0.02057749 -0.043024678 -0.05001632 0.023122022
000110 81 5e 04 3d 6e 75 8e bd ae 1d 38 3b 1d 92 75 ba
       0.03231669 -0.06955992 0.0028093862 -0.0009367781
000120 80 a5 0f 3a 92 36 00 3d 80 dc 19 bd 44 87 1e bd
       0.00054796785 0.031302042 -0.0375638 -0.038703218
000130 cf c1 27 3d bb b1 22 bd 20 58 82 3d 76 9e 61 bd
       0.040956315 -0.03972028 0.06364465 -0.05508276
000140 8f bd 4a bd aa 78 98 bc 18 e1 75 3d 9e 3d 1b bc
       -0.049497183 -0.018612225 0.06002912 -0.00947514
000150 c6 94 60 bd ae a4 77 3d 7d a0 81 3d 8f 42 a9 bc
       -0.05482938 0.060459785 0.06329439 -0.02066162
000160 db 69 c0 bc ed 90 7c bd 6b cb 3a 3d 4e eb 0f 3c
       -0.023487976 -0.06166165 0.04560415 0.008784128
000170 eb 8f ec bb 12 85 4e 3d b2 6c 28 bd ad 92 8b 3b
       -0.007219305 0.050419874 -0.041119285 0.0042594285
000180 79 16 73 3d 3f 94 4a bc 22 3c 9d bc 92 9c 28 3c
       0.059347603 -0.012364446 -0.019193713 0.0102912355
000190 b8 7c bf bc 0d d7 c7 3c 27 79 0d bd 26 e7 b8 3c
       -0.0233749 0.024394536 -0.034539368 0.022571158
0001a0 4a e4 b6 bb e5 55 aa 3c 85 36 67 bd b2 c2 8e 3d
       -0.0055814134 0.02079291 -0.05644848 0.06970729
0001b0 fe a8 df 3c f8 a2 86 bd 42 84 b7 bc 15 c9 12 3c
       0.027302261 -0.065740526 -0.022401933 0.0089590745
0001c0 f7 a2 7d 3a 66 8d 63 bc 15 d9 38 3d a1 e9 f5 bc
       0.0009675468 -0.0138886925 0.0451289 -0.03001863
0001d0 ab 8c 21 3d 8f c6 70 3d 4c 43 88 3d 7f c0 07 3d
       0.039440792 0.05878311 0.06653461 0.033142563
0001e0 15 f9 8b 3c 21 29 7e bc 08 b2 09 bc 1a 04 56 3d
       0.017086545 -0.015512736 -0.008404262 0.052250005
0001f0 47 86 84 3c af ee 30 bd a0 cd 77 bd 1b 47 4e 3d
       0.01617731 -0.043196376 -0.060498834 0.05036078
000200 04 55 27 3d 66 2f d4 3c cb 73 09 3c 83 17 0e 3b
       0.04085256 0.025901508 0.008389424 0.0021681495
000210 f0 44 57 bd 50 7f 80 bd 89 79 48 b9 af da 03 bc
       -0.05255598 -0.06274283 -0.00019118762 -0.008047744
000220 06 91 ad bc 11 e1 7e 3c f5 6f 30 3d 57 af cc 3c
       -0.021187317 0.01555659 0.04307552 0.024985952
000230 50 93 68 3d 0b 33 61 3c 62 9c 4d bc 38 af 27 3c
       0.056781113 0.01374508 -0.012549492 0.0102346465
000240 2d 12 8d 3d bf 98 26 3c 55 02 89 3c d9 23 6c bd
       0.068882324 0.010168253 0.016724745 -0.057651374
000250 9f 1c 78 bd 7e 42 14 3d ed 4f 42 3d c7 5e 4b 3d
       -0.06057417 0.036196224 0.047439504 0.049650934
000260 f4 05 06 bd 29 c2 3f 3d ed dc 8e bd 57 81 51 3d
       -0.03272052 0.046816025 -0.06975732 0.05114874
000270 14 38 ad bc d6 a5 12 bd 0d a8 84 3d 28 e2 01 bd
       -0.021144904 -0.035802685 0.06477366 -0.03170982
000280 47 50 5c bd 34 f4 1f 3d cb 67 e9 bc a5 92 e6 3a
       -0.053787496 0.03905125 -0.028491875 0.0017591311
000290 db 4e 5b bc 0f 1a bb bc 80 35 ee 3c 1a 06 32 bd
       -0.0133855 -0.022839574 0.029078245 -0.04346285
0002a0 6f 65 03 3d a7 a9 5a bd c9 f9 5b bc 92 a2 57 bc
       0.032079156 -0.05338445 -0.013426253 -0.013161318
0002b0 2f 74 82 bd b3 a1 84 bd 49 84 04 bd ed e6 71 3c
       -0.063698165 -0.06476154 -0.03235272 0.01476453
0002c0 95 59 9d bc 22 c4 89 bd b7 1e 0b 3d 60 e7 58 bd
       -0.019207755 -0.067268625 0.03396484 -0.05295503
0002d0 99 5c 38 3d 21 5f fc 3b 7b 07 88 3c d7 24 c9 bb
       0.045010183 0.00770177 0.01660513 -0.006138425
0002e0 34 93 75 bd fe 37 dd 3a bc f8 26 bd 89 6b 8c 3d
       -0.059954837 0.0016877649 -0.040764555 0.06856448
0002f0 25 3c 86 3d b1 60 41 bd c2 05 54 3c 6d d6 e1 bc
       0.065544404 -0.047211353 0.012940826 -0.027568066
000300 15 dc 05 3c 9e ca 24 3d cb de 48 3d e4 a8 70 bd
       0.008170147 0.040232293 0.049040597 -0.058754817
000310 a6 96 0a 3d 73 33 0d 3d d8 31 a0 3c 25 c4 f3 3c
       0.033835076 0.034472894 0.019555017 0.029756615
000320 31 3e 4d bd cf 14 20 3d b0 f2 7a ba 6e 1f 18 3d
       -0.05010814 0.039082345 -0.00095729064 0.03713935
000330 f4 23 ed bc c4 26 2f 3d 4e 6d 8e 3c c2 ce 00 bd
       -0.028947808 0.04276158 0.017386105 -0.03144718
000340 45 ba a9 bb 44 2e e9 bc 9e 1b 81 3d 05 f3 d5 3c
       -0.0051796758 -0.028464444 0.06304096 0.026116857
000350 97 7f d7 bc e8 7e 22 3d 54 79 80 3d ba 14 3e bd
       -0.026305957 0.03967181 0.062731415 -0.046406485
000360 e6 97 47 bc fc 0b b3 bc 11 2c 54 bd 51 f4 c6 bc
       -0.0121822115 -0.0218563 -0.051799837 -0.024286421
000370 e7 c1 a7 bc c4 95 38 bc 95 b7 f5 3c 00 be 83 bd
       -0.020478202 -0.011266176 0.029994765 -0.06432724
000380 a4 4f 58 bb dd 26 4d bd e5 f4 7b bd 8b 37 75 bd
       -0.0033006454 -0.05008589 -0.061512846 -0.059867423
000390 c6 60 2e 3d cc b4 1f 3d 55 1e 4b bd cb 7f 87 3b
       0.04257276 0.03899078 -0.049589474 0.004135107
0003a0 d6 07 c3 bb 1b 40 2c 3d 0e f4 c4 3c 51 bc 75 3c
       -0.005951862 0.042053323 0.024042156 0.014998511
0003b0 cd 1b 04 3d 40 c3 42 bd 62 6b da 3c 09 75 74 3d
       0.032253075 -0.047549486 0.026662532 0.059681926
0003c0 58 06 56 bc 21 7c 05 bb 5f 3a 05 3d a6 13 84 bd
       -0.013063036 -0.0020368176 0.03252637 -0.0644906
0003d0 5c da 8d bc 91 98 07 bd 17 66 9b 3c 74 17 03 bd
       -0.017316036 -0.033104483 0.018969579 -0.03200479
0003e0 15 1e 19 3d bb 45 4c 3b 5e 32 7e 3d 45 4d 1b bd
       0.037382204 0.0031169492 0.062059753 -0.037915487
0003f0 e7 de 84 3d d3 5d d2 bb 62 93 3f 3d 5d 92 8d bd
       0.06487828 -0.006419876 0.046771415 -0.06912682

Stock_price_layer.bias_hh_l0 f4 [800]
000000 f0 3c 44 3c 4e 5f 24 bd b6 d8 4a 3d b6 9d 5e bd
       0.011977419 -0.040129952 0.049523078 -0.054349624
000010 06 41 5c 3d 01 ac 4e 3d 4c 4d 06 3d 62 de 11 bd
       0.05377295 0.050457004 0.03278856 -0.03561247
000020 8d e5 9b bc 4d 4b f1 3b 14 89 3b 3d 9f 24 6e 3b
       -0.019030357 0.007363713 0.045785025 0.0036337746
000030 b6 ec e6 bc 2d 48 09 bc 3e bd 31 bd 30 21 85 bd
       -0.028189044 -0.008379024 -0.043393366 -0.06500471
000040 65 02 4b bd ec ac d9 38 65 dc 9f bc 2a b2 25 bb
       -0.04956283 0.000103795755 -0.019514272 -0.0025283196
000050 96 d7 f8 bc b8 de 0b 3d fa 3d 6b 3c d7 34 90 bb
       -0.030376237 0.034147948 0.014358038 -0.0044008303
000060 f6 d9 4e bd 1c 75 6f 3c b7 c0 2a bd 7a 3b 5d 3c
       -0.050500832 0.014615323 -0.041687693 0.01350295
000070 0d ee 5d 3c 47 7c 9e 3b 96 5d d5 bc c5 65 6b bd
       0.013545525 0.0048365924 -0.026045602 -0.057470102
000080 12 ab 8d bd 3a 80 55 3c 71 06 54 bc f9 2a 3a 3d
       -0.06917395 0.01303106 -0.012940989 0.04545114
000090 b0 6c 73 3d ad ff c9 bc 9b c1 a6 3b 40 fa 79 bd
       0.059429824 -0.024658049 0.0050889975 -0.061029673
0000a0 e6 d6 6f 3d 68 28 56 bc 38 0b 44 3d f9 4c 30 3d
       0.058554552 -0.013071157 0.04786226 0.043042157
0000b0 e3 eb 75 3d 01 50 36 bd ae cc e2 3c ca b7 07 3d
       0.060039412 -0.04450989 0.02768549 0.03313426
0000c0 44 eb 03 3d 42 ea 1f bd d6 40 0b bb ed b6 63 3c
       0.03220679 -0.039041765 -0.0021248362 0.013898593
0000d0 94 27 17 3d de d2 56 3d d2 8e 1d 3d 16 f6 4b 3d
       0.03690298 0.052447192 0.038466282 0.049795233
0000e0 4c 8d 07 bd d4 cc 8c 3d 8a 34 f7 3c 1d ec bc bb
       -0.033093736 0.06875005 0.03017642 -0.0057654516
0000f0 3d b9 7a 3d 38 64 85 3d 33 55 62 3d 32 8f 55 bd
       0.061211813 0.06513256 0.055257034 -0.052138515
000100 67 fd 86 3d 3e d0 b7 bc 84 e5 40 3d 65 28 b7 3c
       0.065913014 -0.022438165 0.047093883 0.022358129
000110 c7 0b 51 3d f7 74 61 3c ef 80 e9 3c 59 03 ed bc
       0.051036622 0.013760797 0.028503863 -0.02893226
000120 c3 26 8c 3d 55 17 04 3b 1a dc 32 bc 02 e5 29 bd
       0.06843331 0.0020155509 -0.010916734 -0.041478164
000130 ac 73 86 bd 96 19 9d 3a 4a 52 21 bd 30 d4 1d 3d
       -0.065650314 0.0011985775 -0.039385118 0.038532436
000140 2e 23 82 bd b0 93 b8 3c cd 91 0b bd 72 8c b8 3b
       -0.06354366 0.02253136 -0.034074593 0.0056319768
000150 0d a0 66 3d 3f f0 42 bc 49 81 f1 3c bd 0c 45 3c
       0.05630498 -0.011898099 0.029480593 0.012026963
000160 b6 ce 7d bc 24 57 04 bd 54 2b cd bc 50 cb b4 bc
       -0.015491178 -0.032309666 -0.025045075 -0.022069603
000170 25 bc 6d 3d fc c4 35 bd ac 37 df bb 1d cf 3d 3c
       0.058040757 -0.044377312 -0.0068120565 0.011585024
000180 41 80 75 3d 00 9e 76 bd cb 43 43 bd ae 9a 89 bc
       0.059936766 -0.060209274 -0.047672074 -0.01679739
000190 c8 53 95 bb b1 c4 61 3d 8d 50 c1 3c ec 47 a5 bc
       -0.0045571066 0.05511922 0.02359798 -0.020175897
0001a0 dc bf 3c 3d c2 1f 39 3d a4 d2 88 3d d6 fb 7b bd
       0.04608141 0.045196302 0.066808015 -0.061519466
0001b0 ca f4 8f 3c 5b 6c cb 3c 82 f5 62 bd 13 e7 8e bc
       0.01757278 0.024831941 -0.055409916 -0.01744417
0001c0 13 6b 73 bc 50 4d 7e 3d 6e e6 4f 3b 8b 81 97 3c
       -0.014857071 0.06208545 0.003172304 0.018494388
0001d0 c6 37 fd bc dd 16 a3 3c 37 75 3a bc ff 88 f6 bb
       -0.030910384 0.019908363 -0.011380485 -0.0075236554
0001e0 a2 b4 81 bd 6f 75 0d 3c 2b f8 11 bd c5 69 88 3d
       -0.06333281 0.008633955 -0.035637062 0.06660799
0001f0 58 38 02 bc 47 30 f2 bc c6 d6 7a 3d 89 1a 7f 3d
       -0.007948004 -0.029564036 0.06123998 0.062281165
000200 a8 47 78 3c dd f1 f5 3b a0 c6 1f bd 16 0e 2b bd
       0.015153803 0.007505639 -0.039007783 -0.04176148
000210 8b 7b ec 3c b3 43 9c bc 89 0f b3 3c 8c 0e 21 3d
       0.028867504 -0.01907525 0.021857994 0.039320514
000220 80 41 85 bd a7 77 9e 3c 59 8a 15 3d e5 b5 80 bd
       -0.06506634 0.019344164 0.03650889 -0.06284694
000230 01 29 b9 3c d5 9f 66 bd 86 5b 05 3c 5b 26 fa 3c
       0.02260256 -0.05630477 0.008139497 0.030535867
000240 a4 94 cd bb 39 72 49 bc 8b 40 0f 3d 93 5d e6 3c
       -0.006273823 -0.012295299 0.034973662 0.028120792
000250 07 5e 64 bb 3e 03 3e bd 97 c7 8b bc a8 5e ff 3c
       -0.0034846084 -0.04638981 -0.017062945 0.031173065
000260 3a 32 21 bc 1d d7 30 bd c0 e3 45 bc f0 f7 98 3c
       -0.009838635 -0.043173898 -0.012078226 0.018672913
000270 59 39 78 3d 39 06 7e bd c5 65 0e bc f1 fe 26 3c
       0.060601566 -0.062017653 -0.008691256 0.010192619
000280 dd fa 07 3d e6 3b 79 bd d6 08 7d bd ec 8a 32 3d
       0.033198226 -0.06084814 -0.061776005 0.043589517
000290 d0 5d 37 bb b4 fd 78 3c e6 ba 8b 3d 32 e1 7c 3d
       -0.00279795 0.015197206 0.068227574 0.0617382
0002a0 74 8a 17 bc 50 2a 83 3d 40 e5 4d bd ac 42 8e 3d
       -0.009249318 0.06404555 -0.050267458 0.069463104
0002b0 a3 89 51 3c 9f d8 2a bd 1d 0f 51 3d 03 55 55 bd
       0.012789163 -0.041710492 0.051039804 -0.052083027
0002c0 b7 6f a9 bb e0 99 40 bd 39 aa 82 3d fe 37 ac bc
       -0.005170788 -0.047021747 0.06380124 -0.021022793
0002d0 01 22 77 bd b5 b0 80 bd 30 25 13 3a 30 04 56 bd
       -0.060335163 -0.06283704 0.00056131463 -0.052250087
0002e0 b5 d7 11 bc 73 6d 36 3d 25 ee ae bc 55 a2 83 bc
       -0.008901526 0.044537973 -0.02135379 -0.016068617
0002f0 85 5b 88 bd fb cc 81 3d 4f 9c 05 3d 5d 71 88 3d
       -0.06658081 0.06337925 0.03261977 0.06662247
000300 72 f9 a3 3c 0b 0d ca bc f1 c6 72 3d 5c 30 61 3d
       0.020016406 -0.024664422 0.059271757 0.05497776
000310 5e c9 e5 bc 6a a5 62 bd 7c 92 20 bd a8 63 62 bd
       -0.02805012 -0.055333532 -0.0392022 -0.05527082
000320 4e f0 a0 bb 4c cb 3d bd b4 b1 84 bd b6 bf 4c 3d
       -0.004911459 -0.046336457 -0.06479207 0.049987517
000330 d1 1d 13 3c 2d af a9 b8 af 30 7e 3d 4a df 7e bb
       0.008979277 -8.091177e-05 0.062058147 -0.0038890415
000340 7b 73 ca 3b 1d db 73 bd c7 d8 cb 3c a6 d9 02 3d
       0.006178317 -0.059535135 0.02488364 0.031945847
000350 7b 10 c8 3a 14 79 89 3d 5b 6b f5 bc 9a 44 6d 3d
       0.0015263701 0.06712547 -0.029958418 0.05792675
000360 cf 68 20 3b c3 28 31 3d 75 81 c9 bc 0d 9c 18 3d
       0.0024476533 0.043251764 -0.024597863 0.037258197
000370 e1 48 ca bc 58 e8 2b 3c 52 b1 0e 3d 2f cb 86 3d
       -0.024692954 0.010492407 0.034837075 0.06581723
000380 3c 80 df 3c b7 47 a0 3c eb 25 3b 3d bd 33 e8 3c
       0.027282827 0.019565446 0.04569046 0.028344983
000390 a4 07 12 bd 8a ac af bc 2b b5 5c bd 6d 28 06 bc
       -0.035651818 -0.021444578 -0.053883713 -0.008188349
0003a0 8c 28 0c bd d5 cb 79 bc f7 be f6 ba 8e b3 e3 bc
       -0.034218356 -0.015246351 -0.0018825223 -0.02779558
0003b0 57 2e 0c bd a1 eb 89 3d 2e 9e cd bc 0d e3 8e 3d
       -0.03422388 0.06734396 -0.02509984 0.069769
0003c0 e7 30 fd ba d8 f2 87 3d 39 c9 e3 3c b2 af f0 bc
       -0.0019316942 0.06638116 0.027805911 -0.029380653
0003d0 f4 56 b6 bc 00 23 09 3d a9 4e bc bb e8 b8 49 bd
       -0.02225826 0.033480644 -0.0057466817 -0.049248606
0003e0 cf e7 9b 3c 53 81 58 3c f5 d4 86 bd 45 5d 07 bd
       0.019031433 0.013214427 -0.06583587 -0.033047933
0003f0 cf 8b fd 3c 40 16 6e bd 66 a3 21 3d 22 fb 12 3d
       0.030950455 -0.058126688 0.03946247 0.03588403

DNN_Layer.weight f4 [100, 200]
000000 56 c2 bb 3c 55 89 75 bc b4 e2 83 3d 1a e0 83 bd
       0.022919815 -0.014986356 0.064397246 -0.06439228
000010 78 94 f0 bc 8e 8a 44 bc 84 de 59 3d 70 a0 74 bc
       -0.02936767 -0.011995925 0.053190723 -0.014930829
000020 1c 30 1e bd b8 b1 55 bd 20 6b 90 3d b3 02 87 bd
       -0.0386201 -0.05217144 0.070516825 -0.06592312
000030 53 db d4 3c a1 d2 06 bd d9 76 d1 3c 6c 93 a1 3c
       0.025983488 -0.032915715 0.025569366 0.019723617
000040 d8 52 04 3d 1a 12 70 3c 45 61 47 bd 6f fe 07 bd
       0.03230557 0.014652753 -0.048676748 -0.03320163
000050 2c 06 8d ba 42 7f 34 3d 43 74 de 3c 76 1f 10 bd
       -0.0010759286 0.044066675 0.027155047 -0.035186253
000060 3a e9 4c 3d 1d f1 3a 3c c9 31 e2 bc 62 74 68 bc
       0.05002711 0.011410025 -0.02761163 -0.014187904
000070 cf 7b d5 bc 03 e7 8f bd fa 95 7f bd e4 1b 12 bc
       -0.026060013 -0.07026484 -0.06239889 -0.008917782
000080 30 cb 0b 3c 9a 59 5a 3c 40 0d 49 3d 9c 9d 5a 3d
       0.00853233 0.013327027 0.0490849 0.053372964
000090 f0 89 6e bd 2e 9d 88 bc 70 03 8c bd 07 1e fd bc
       -0.058237016 -0.016676512 -0.06836593 -0.030898107
0000a0 28 63 16 3d 5a dd a1 bc cf 3c 60 bb b1 2e 7f bd
       0.036715657 -0.019758869 -0.0034215932 -0.062300388
0000b0 dd a5 0b 3d 01 c8 1f bd 51 3b c6 bc 5e 95 01 bd
       0.034093726 -0.039009098 -0.024198206 -0.03163659
0000c0 c4 73 5d 3d af 21 a1 3c 55 67 03 3d e7 3a 1c 3d
       0.05406548 0.019669382 0.032080967 0.03814211
0000d0 66 3e 30 bc 4d 08 36 bd bb 5c 85 bd 3e 23 47 bc
       -0.010757064 -0.04444151 -0.065118276 -0.0121543985
0000e0 2a 75 98 bc dc 8c 18 bd 40 17 2d bc 32 89 1e bd
       -0.018610556 -0.03724371 -0.010564625 -0.03870506
0000f0 e0 7d 89 3d d8 14 8e 3d ab ea b6 3b da ff 59 bd
       0.06713462 0.069375694 0.005582174 -0.053222515
000100 7e 49 c8 bc 96 d5 80 3d 80 a8 57 3c c1 12 53 ba
       -0.024449106 0.06290738 0.013162732 -0.0008051806
000110 c2 51 7b bd 57 fc 82 bb 88 a8 04 bc 81 e1 11 3d
       -0.061357267 -0.0039973664 -0.008096822 0.035615448
000120 42 04 69 bc da 48 79 3c 6d cc 30 3d a6 55 bc bc
       -0.014222207 0.015215123 0.043163706 -0.02299006
000130 39 95 ad 3c 71 20 a8 3c f6 58 78 bd 71 f5 a6 bc
       0.021189319 0.020523282 -0.060631715 -0.020380707
000140 a6 d7 47 bc 37 bc 8e bd 8e 84 10 3d c7 30 dd 3c
       -0.012197411 -0.06969493 0.035282664 0.027000798
000150 c8 5d 3b 3c b5 52 8c 3a cc 96 fd bb ae de 5d 3d
       0.011435933 0.0010705801 -0.0077389237 0.054167442
000160 ab f2 07 bd 0e 4c 0e bd 96 b7 2f 3d b0 c9 3b 3c
       -0.03319041 -0.0347405 0.04289969 0.01146166
000170 21 4d ef bc 9d aa 86 3b 16 fa 49 3d e9 32 69 bd
       -0.029211583 0.004109694 0.049310766 -0.056933317
000180 00 91 71 3d 55 7d 8e bc 73 58 94 3c 07 d9 8f 3d
       0.058976173 -0.017393747 0.018108582 0.070238166
000190 81 ed 85 3d 83 69 83 3d d4 f7 43 3c e8 fd 3c 3b
       0.06539441 0.06416609 0.011960942 0.0028837863
0001a0 cc d3 aa bc f6 a5 87 3d f1 b1 74 3d a8 bf 58 3c
       -0.020852946 0.066234514 0.05974001 0.013229288
0001b0 5a 50 5d bd 91 56 e1 3c 4e a5 2a bd 41 e0 3a bd
       -0.054031707 0.027507098 -0.041661553 -0.04562402
0001c0 6a 86 10 3d bb 1a 41 3d 8c 8e 74 3d e7 ef b6 3a
       0.035284437 0.047144633 0.059706256 0.0013956995
0001d0 b9 2a 26 bd 32 a0 48 3c 10 5e 55 bd 0a 6f 85 3c
       -0.040568087 0.012245225 -0.052091658 0.0162883
0001e0 1f b5 84 bc 85 33 5a 3d cf 0b d3 3b 87 09 8b bd
       -0.016199647 0.05327179 0.0064406167 -0.067889266
0001f0 3b 66 c4 bc 9a 09 26 3d 4a fd 6b bd 8a ff 0b 3d
       -0.023974529 0.0405365 -0.057614602 0.034179248
000200 a3 08 6d bd 09 e8 18 bd b6 85 90 3d 88 fc 89 3d
       -0.057869565 -0.03733066 0.07056753 0.0673762
000210 6d 90 71 bc 81 06 02 bd 17 1b 77 3d a1 d1 8d bc
       -0.014743906 -0.031744484 0.06032857 -0.017311873
000220 6d 16 74 bd 2c 48 cb 3b 75 14 81 3d eb 2d 81 bd
       -0.0595917 0.006203672 0.0630273 -0.06307586
000230 2f 9f 31 bd 19 66 5d 3c 80 12 38 3d e3 ef 5b 3d
       -0.0433647 0.0135131115 0.044939518 0.05369557
000240 8d d6 d9 3c 7c c5 49 bc 94 d4 3c bd 0b 8f 69 3d
       0.026591564 -0.01231515 -0.046101168 0.057021182
000250 4b ed c5 bc 9a d7 64 bc 61 e4 11 bd f2 d1 50 3d
       -0.024161002 -0.013967419 -0.03561819 0.05098147
000260 45 c9 8a 3b db 0e ac bc f1 b8 18 bd 6c 9d 83 3b
       0.004235419 -0.021003177 -0.03728575 0.004016569
000270 ae 59 ac 3c 87 cd 23 3a 11 52 9a bc 5f 8d d5 bc
       0.021038856 0.00062485825 -0.01883796 -0.026068388
000280 8e e6 83 bd a8 0a 30 3c 55 71 95 3c 51 ff 69 bd
       -0.06440459 0.010744728 0.018242517 -0.057128254
000290 ba 07 68 3d 1e 56 19 3d 3e 52 48 3d 33 a2 3f 3d
       0.056647994 0.037435643 0.048906557 0.046785545
0002a0 f1 11 89 3d 18 7c 4f bc 9f e9 2a bd c3 3f 43 bd
       0.06692875 -0.012663864 -0.041726705 -0.04766823
0002b0 92 bc 72 bd 67 41 87 3d 77 bb 8e 3d e7 a8 90 bd
       -0.059261866 0.066042714 0.0696935 -0.070634656
0002c0 6d 55 04 bd 8a a6 ad 3c b3 cf 41 bd e5 99 88 bd
       -0.03230803 0.021197576 -0.047317218 -0.06669978
0002d0 09 43 8d 3d c5 74 13 bb fc 76 69 bd 8a 7b 4b 3d
       0.068975516 -0.002250002 -0.056998238 0.049678363
0002e0 4b df a3 bc c8 48 6d bd e6 a4 21 bd 22 24 3d bd
       -0.020003935 -0.057930738 -0.0394639 -0.046177037
0002f0 3b 9b ad 3c 52 00 82 bd 13 7f 4a bc 7e 71 d1 bb
       0.021192184 -0.06347717 -0.012359398 -0.006391703
000300 72 be 37 bd 97 d3 37 bd c0 7e bf 3c 17 6a 12 3d
       -0.044859357 -0.044879522 0.023375869 0.035745706
000310 bc f6 97 bc 26 c8 3a 3c ca f4 a4 3b 79 96 02 bd
       -0.01855027 0.011400258 0.005034064 -0.031881783
000320 d7 c1 16 3d 58 e6 89 3d 07 60 33 bd 9e f0 67 3d
       0.036805954 0.06733388 -0.04379275 0.056625955
000330 13 e3 cf bc d8 95 cc bc 93 f4 7c bd 17 d3 53 3d
       -0.025376832 -0.024973795 -0.06175668 0.051714983
000340 72 eb d6 bc 0f 37 3d bb 32 22 76 bd ae 2e 3d 3d
       -0.026235316 -0.0028871929 -0.060091205 0.046187095
000350 1f 72 7a 3d 2a 54 82 bd 21 e0 81 3d 5c 2a 87 bb
       0.06114399 -0.06363709 0.06341577 -0.0041249227
000360 4d 71 53 3d e6 4e d2 bc 66 4f 4b bd 27 79 79 bd
       0.051621724 -0.025672387 -0.049636267 -0.060906556
000370 f5 1d a4 3c 94 14 a6 3c 72 29 87 3d db 0a 86 3c
       0.020033816 0.020273484 0.06599702 0.016362598
000380 49 a6 99 3b 42 58 05 3c e4 38 69 3d fe 62 17 bd
       0.004689012 0.008138718 0.05693902 -0.03695964
000390 68 3c 35 3d b6 9f 51 3d a8 71 75 3d 35 20 38 3d
       0.04424706 0.051177703 0.059922844 0.04495259
0003a0 a1 b3 88 3c b1 4e 87 bd 71 d3 a5 3c a5 f3 a9 3c
       0.016687216 -0.06606806 0.020242425 0.020746062
0003b0 1b 4d 85 bd c7 1f 94 3c 26 97 f7 3c 38 cc 3f bd
       -0.06508847 0.018081559 0.03022344 -0.046825618
0003c0 08 0a 77 bd 6e 83 16 bd 30 ed d4 3c 22 2e 94 ba
       -0.0603123 -0.036746435 0.025992006 -0.0011305253
0003d0 71 a4 f8 bc 0a 4f 04 3d 0c 42 12 bd 64 ea 80 3d
       -0.03035185 0.03230194 -0.03570752 0.062947065
0003e0 15 d1 7a bd c6 e6 6e 3d 3f 10 1c bd a3 3d 40 bd
       -0.061234552 0.05832555 -0.03810143 -0.04693378
0003f0 22 3a 96 ba a9 89 85 3d 59 e0 86 bd 33 8d df bc
       -0.0011461417 0.06520397 -0.0658576 -0.027289009

DNN_Layer.bias f4 [100]
000000 08 d7 f7 3c 09 05 02 bd ae 5b 74 3d 3b 98 44 3d
       0.030253902 -0.031743083 0.059657745 0.04799674
000010 9d 58 a0 bc 3c ca 60 3d 60 07 4e 3d 52 44 3b bd
       -0.019573504 0.054880366 0.050300002 -0.045719452
000020 01 d2 e7 bc 24 8b a0 3d ad f3 26 3d e3 f7 94 3c
       -0.02829838 0.07839039 0.04075973 0.018184608
000030 7e f7 6e bd ad ed 60 3d 3b 07 6a bd f5 66 c1 bb
       -0.058341496 0.054914165 -0.0571358 -0.005902166
000040 49 7b 58 3d d2 45 c5 bc 4e 94 df bc 4f 80 44 bd
       0.05285195 -0.024081144 -0.027292397 -0.047973927
000050 ee 71 9e 3c 6a a8 c5 bc ec b2 24 bd 24 ee 70 bd
       0.019341435 -0.024128158 -0.040209696 -0.05882086
000060 31 4e 90 3c 3f 74 dd bc 26 3b 02 bd b5 70 59 3d
       0.01761541 -0.02703297 -0.03179469 0.053086
000070 fe 5e 4a 3d 94 f3 f3 bb 6e 3b 53 bd 2d fc ca 3c
       0.049406998 -0.0074448083 -0.05157035 0.02477845
000080 cb 82 7c 3d d5 38 42 bd c3 9e 19 bd 4a 0f 8c bd
       0.06164817 -0.04741748 -0.037504923 -0.06838854
000090 90 83 61 bd e4 d7 54 bc b5 dc 1b 3d bc 41 cb 3c
       -0.05505711 -0.012990925 0.03805228 0.024811618
0000a0 0e 4d d7 bc f9 aa 81 bc a8 10 8c 3d 9c 63 c2 3c
       -0.02628186 -0.015828596 0.068391144 0.023729138
0000b0 1e b4 a3 3d 58 51 12 bd cc bb 8e bc 44 7d a0 3c
       0.07993339 -0.035722107 -0.017423533 0.019590981
0000c0 d3 b9 fa 3c fc 4d f2 3c c9 a3 23 bc b8 2b 7d bc
       0.030606186 0.029578201 -0.00998778 -0.015452318
0000d0 82 9b 5a 3d 1d a6 c8 3b fc 45 88 3d 7d 33 4a 3d
       0.05337096 0.006123318 0.066539735 0.04936551
0000e0 92 90 0c bc c9 0f 5e 3d 06 71 e9 ba 4c 05 98 bd
       -0.00857939 0.054214273 -0.0017810173 -0.07422885
0000f0 75 da 91 bd ea 90 83 3d db a0 16 bd 9c 3b 41 bd
       -0.071217455 0.064241245 -0.036774497 -0.04717599
000100 39 26 bd bc 62 46 42 3d 78 0e da 3c b1 7e 63 bd
       -0.023089515 0.047430404 0.026618227 -0.055540744
000110 28 f4 06 bd cd 5f 44 3d be 5a 6f 3d 62 68 cb 3c
       -0.03294769 0.047942925 0.058436148 0.024830047
000120 51 25 00 bc c5 6c 7c bb 6b 2d b2 3c 6d 97 88 bd
       -0.007821397 -0.003851698 0.021750173 -0.06669507
000130 9c f0 4b bd 88 0b cf bc 07 99 0b 3d 7e db 04 3c
       -0.04979001 -0.025274053 0.034081485 0.008108972
000140 93 c1 86 3d 31 13 86 bc 59 da 51 bd ee db f9 bc
       0.0657989 -0.016366573 -0.051233623 -0.030500378
000150 96 2a 3e 3d 2d e3 fb bc c1 13 a5 bc 34 5b be 3c
       0.046427332 -0.030747974 -0.020151021 0.023236848
000160 15 55 17 3d 01 9e 1c bd 46 bb 34 3d 6c f4 61 3c
       0.036946375 -0.03823662 0.04412391 0.013791185
000170 8a 86 e6 39 a2 70 8d bd 7a 86 f4 3c 32 87 ae 3c
       0.00043969258 -0.06906249 0.02984928 0.0213047
000180 3c 97 ba bb ac 1f 9e 3d 29 1f 57 bd 71 32 5f bd
       -0.005694298 0.07720885 -0.05251995 -0.054491464

DNN_Layer2.weight f4 [1, 100]
000000 96 8f a5 3a d1 bd 2a 3d 5c 80 68 3d a6 31 dc bc
       0.0012631293 0.04168493 0.056763038 -0.026879143
000010 d9 88 52 3c b8 c2 33 3d 38 d0 ac 3c 7a 86 38 3d
       0.01285001 0.04388687 0.02109538 0.04505012
000020 0d f3 57 bd 44 6e 99 3d 56 9c 33 bd 76 ee 9d 3d
       -0.052722026 0.074917346 -0.043850265 0.077114984
000030 44 c7 db bb c0 de 89 bd e7 f1 cc bc c8 78 92 3d
       -0.006707104 -0.06731939 -0.025017692 0.071519434
000040 8d e4 87 3c d8 2e b0 bd de a4 ca 3d 88 09 a2 3d
       0.016588474 -0.08602685 0.09894727 0.07911974
000050 01 e5 1a bc e4 95 34 3c 79 68 9e bc 7c c0 2c bd
       -0.009454013 0.011022065 -0.019336926 -0.042175755
000060 1b 21 ad 3b 01 ae b4 3d dd 34 cf 3c 5d ca b4 3b
       0.0052834875 0.08822251 0.025293762 0.0055172876
000070 da ed 76 bd ef 74 27 bd 15 49 b1 bd 31 80 7a bd
       -0.060285427 -0.040883 -0.086565174 -0.06115741
000080 6e 88 03 3c be 83 e6 3b f2 24 8e 3d 55 74 60 bd
       0.008028133 0.007034748 0.069406405 -0.054798443
000090 31 63 72 3c 32 38 f5 3c c1 9a 35 3c cf 8b 81 3d
       0.014794157 0.029934023 0.0110842595 0.063254945
0000a0 a6 dc 70 bd f0 57 ce bb 86 91 64 3c 94 ac 8e 3c
       -0.058804177 -0.006297104 0.013950711 0.017416276
0000b0 f1 d4 f6 3c 74 9a 09 bd b1 7f 10 3d 54 6e 56 bb
       0.030130835 -0.033594564 0.035278026 -0.003271957
0000c0 ab c5 0e 3b de 89 bc 3c 91 1a 7d 3d d4 ec 79 3b
       0.00217853 0.023014959 0.061792914 0.0038135545
0000d0 41 46 93 bc c9 ac 2a bd 1f ab 99 3c 9d 49 17 3d
       -0.017977836 -0.041668687 0.018758355 0.036935437
0000e0 e0 d7 0d bd ef a4 91 3d 6e 38 7a bd c2 c8 5c bd
       -0.034629703 0.07111537 -0.06108897 -0.053902395
0000f0 f8 7b ad bd 6a 37 69 3d 34 8f 9f 3a b1 f3 1b bb
       -0.08470911 0.056937613 0.0012173415 -0.0023796374
000100 42 6a 1c bc b0 c3 92 3d 19 46 88 bd ec 86 a8 3d
       -0.009546818 0.07166231 -0.06653995 0.08228859
000110 88 a7 db bd de d6 10 3d 60 e1 fe bc 3d 77 ba bc
       -0.107253134 0.035361163 -0.031113327 -0.022761935
000120 07 7b 5a 3c 66 c5 79 bb 29 fa 9c bc a6 4f ab bd
       0.013334996 -0.0038112043 -0.019162254 -0.08364801
000130 47 7f 4f bc 9d 38 b1 3c 0c 3c 52 bd 61 cf ef 3b
       -0.012664623 0.02163344 -0.051326796 0.0073184227
000140 60 9e c4 3d 19 dd 66 bd 78 53 c2 bd 47 88 15 bc
       0.0960052 -0.0563632 -0.09488577 -0.009126729
000150 37 47 68 3d f3 af 13 bc 36 e7 64 3d 0b 77 42 3d
       0.05670854 -0.0090141175 0.055884562 0.04747681
000160 6a 11 a4 bc 1c 98 75 bc cb 7d 36 bd a4 92 b5 3d
       -0.020027835 -0.014989879 -0.04455356 0.0886586
000170 04 d0 0b bc fb 6d 19 bc b2 72 25 3c d2 ed b6 bc
       -0.0085334815 -0.0093646 0.010098146 -0.022330198
000180 37 3b b2 bd 26 8c 96 3d 45 a1 b6 bd 93 f8 29 bd
       -0.087027006 0.0735095 -0.089174785 -0.041496824
